autoencoder_U20_model.onnx (onnx, 110545 bytes, 20 tensors)

encoder.0.weight f4 [64, 164]
00000000: ff18 06af 84cf 7aaf 2f03 46af a8a2 01b0
00000010: 848a 86b0 9fdc c2b1 b1da f5b2 9bf4 81b3
00000020: 00cc 55b4 d00e b4b4 7e2a 26b5 5bf3 83b5
00000030: 3185 f4b5 e738 0ab6 934a 59b6 66f6 55b6
00000040: 91e1 83b6 4e19 9fb6 a275 91b6 5111 97b6
00000050: 6074 b8b6 0c47 d1b6 67cd cfb6 5821 00b7
00000060: 004e f6b6 a3c1 0ab7 0ea6 16b7 dccb 2db7
00000070: d113 2bb7 9b84 29b7 e30e 31b7 5da3 2eb7
00000080: 1b23 31b7 d52b 29b7 ebca 2eb7 440e 2db7
00000090: 2fb3 4eb7 f758 37b7 0a40 3bb7 6b84 4db7
000000a0: 848b 38b7 d7c8 47b7 1991 3eb7 649c 2fb7
000000b0: b30d 2fb7 b800 36b7 18d5 26b7 41f5 1bb7
000000c0: 208a 39b7 dcaa 20b7 5447 4bb7 03b7 4eb7
000000d0: db30 4bb7 68f7 60b7 c7ce 63b7 ab2c 32b7
000000e0: 89dd 70b7 f01b 6ab7 5676 7bb7 6888 3cb7
000000f0: 28cb 71b7 a6a2 88b7 1b49 8cb7 97b0 8fb7
00000100: 8ae4 94b7 4012 88b7 98e3 95b7 3241 96b7
00000110: c034 88b7 000d 86b7 b3ab 99b7 9646 96b7
00000120: edd6 98b7 f9c8 97b7 1106 83b7 3767 94b7
00000130: 699c 6fb7 ea52 9bb7 5dab 9ab7 1be2 a0b7
00000140: c92f b7b7 10c1 b8b7 b05d b3b7 ef5f adb7
00000150: ab94 abb7 4029 a3b7 dc23 5db7 34e2 86b7
00000160: 1eb4 4fb7 5536 59b7 0de8 20b7 356a 17b7
00000170: d0ef c9b6 9bfd b8b6 ae1b 72b6 e691 e1b5
00000180: 4ce3 6b36 2a4b 2937 24f4 1837 1cf7 1f37
00000190: 7db6 5b37 ffee 4337 b184 2c37 bdab 4137
000001a0: 2d08 8737 1b6c 9037 2730 8037 296f 8137
000001b0: b116 7437 b445 6237 ef36 5037 acd9 6a37
000001c0: 6ad2 5f37 d3ea 5737 358a 4337 7e3d 4037
000001d0: 1bf5 4337 8ef9 3b37 cbd2 2b37 57b4 3f37
000001e0: 2009 5437 e355 7a37 aadf 8237 2aa7 8537
000001f0: 65b2 6637 09f5 4237 9b94 4337 91ff 3a37
00000200: 73fa 3137 1d5d 1c37 958d 1e37 54bd 0d37
00000210: 7766 0437 dc2c e836 45e6 ea36 1de2 d736
00000220: e682 cf36 91c6 9f36 eb5e 8f36 0ba7 9736
00000230: 3d72 8d36 d242 6736 400c 6036 ca56 4136
00000240: c345 3536 1de5 4a36 4e19 2536 f51a 9535
00000250: a9cd e234 a35c f734 afe4 0135 f614 b834
00000260: db4f 8534 b449 9134 f2c3 c834 8aa2 1e35
00000270: 357c 3e35 8be6 2435 a850 0435 253e 1535
00000280: 65ee e534 9876 1a35 d1e7 1035 04b3 0f35
00000290: fa3e 0c36 c6e2 27b5 fb87 0fb6 10bd abb7
000002a0: 0531 91b8 e0b7 e2b8 3a4d 53b9 9939 6cb9
000002b0: d0fe 61b9 6320 72b9 219f 09b9 66a8 1738
000002c0: 8a15 d439 a16a 8d3a 2b73 e43a d901 293b
000002d0: 70de 6eb9 acaa 5b3b f8da 2c3b bb33 ca3b
000002e0: 5be6 533a feb4 1b3c 70dd d63b 1926 72ba
000002f0: f4be d7bb 17d3 923c 3b35 a13c d7cf 813c
00000300: 631c 8c3a 7115 fd3c 2388 963c 52ee a73c
00000310: db29 b5bb 93db 0abb 9cf8 953b 6253 c73c
00000320: 63b0 903c 7437 df3c 33da 633c 04ff 1a3d
00000330: 5ffe 533c c203 143c afcd 313c 8844 4f3c
00000340: c776 bf3c c3c2 173d afa5 e13c 3acd 4e3d
00000350: b068 373d 3e99 82ba 06ff 893c a07c b63c
00000360: e447 4f3d e46b f43c 70dd 1a3d 04ce cd3c
00000370: ce12 47bc d6e8 023d da9e 5a3d fa2b e83b
00000380: 4a29 303d e449 d63c 5a6c 11bc b4ee 433c
00000390: 4075 2f3c 0c83 503d c642 e13c 66a2 cfbb
000003a0: 6c7c f13c 24c1 863b 36f7 cc3c 4f45 bc3c
000003b0: fa56 cbba 9784 9d3c dc60 f13c 92b7 aeb8
000003c0: c012 b83c 54cd 9bbb ceaf f83c fd1f 0a3d
000003d0: deb0 213d 94b8 5a3d c339 f33c ceda 553c
000003e0: 76d1 0dbc 4126 213d 6e14 193d b8ec 363c
000003f0: ff35 e93b 1fd6 383d 0804 413d fb06 db3c
-1.219611e-10 -2.2811092e-10 -1.8009126e-10 -4.7161075e-10 -9.789152e-10 -5.671225e-09 -2.8621203e-08 -6.051524e-08
-1.9911386e-07 -3.353839e-07 -6.1901653e-07 -9.831086e-07 -1.821818e-06 -2.0596724e-06 -3.2378928e-06 -3.1882896e-06
-3.9303636e-06 -4.741515e-06 -4.335031e-06 -4.5021666e-06 -5.497175e-06 -6.2369563e-06 -6.1929927e-06 -7.637158e-06
-7.3404517e-06 -8.2705255e-06 -8.979359e-06 -1.0359068e-05 -1.0197008e-05 -1.010406e-05 -1.0553488e-05 -1.0409244e-05
-1.0558196e-05 -1.008339e-05 -1.0418454e-05 -1.0314925e-05 -1.2320276e-05 -1.0928364e-05 -1.1160979e-05 -1.2249783e-05
-1.0999738e-05 -1.1908086e-05 -1.1358666e-05 -1.0467225e-05 -1.0434002e-05 -1.0848213e-05 -9.943986e-06 -9.295823e-06
-1.1059019e-05 -9.5765245e-06 -1.211635e-05 -1.2321168e-05 -1.2111118e-05 -1.3409044e-05 -1.35783985e-05 -1.0620027e-05
-1.4356695e-05 -1.3953992e-05 -1.4988318e-05 -1.1237433e-05 -1.441202e-05 -1.6288202e-05 -1.6723343e-05 -1.712916e-05
-1.7749397e-05 -1.6220962e-05 -1.7868166e-05 -1.7911752e-05 -1.6237027e-05 -1.5980098e-05 -1.8318975e-05 -1.7914263e-05
-1.8219895e-05 -1.8094188e-05 -1.5619242e-05 -1.7691038e-05 -1.4281927e-05 -1.851605e-05 -1.8438028e-05 -1.9178775e-05
-2.1837552e-05 -2.2024411e-05 -2.138209e-05 -2.066788e-05 -2.0454017e-05 -1.9450323e-05 -1.3180976e-05 -1.6079379e-05
-1.2380098e-05 -1.2946858e-05 -9.590772e-06 -9.02503e-06 -6.0181846e-06 -5.513151e-06 -3.6076922e-06 -1.6806268e-06
3.5150033e-06 1.00906855e-05 9.116749e-06 9.534673e-06 1.3095906e-05 1.1678551e-05 1.02828935e-05 1.1543682e-05
1.6097061e-05 1.7216478e-05 1.5281212e-05 1.5429761e-05 1.4548817e-05 1.3486879e-05 1.2410556e-05 1.3998168e-05
1.3340827e-05 1.2869673e-05 1.1655085e-05 1.1458409e-05 1.1679974e-05 1.1204173e-05 1.0241473e-05 1.1426476e-05
1.2638309e-05 1.4921158e-05 1.560136e-05 1.5932677e-05 1.3750604e-05 1.1620353e-05 1.1657506e-05 1.1145968e-05
1.0608334e-05 9.320004e-06 9.4504985e-06 8.448336e-06 7.89167e-06 6.919361e-06 7.0005503e-06 6.4338224e-06
6.1843193e-06 4.7616854e-06 4.272782e-06 4.519597e-06 4.2154265e-06 3.4460577e-06 3.3385732e-06 2.880976e-06
2.7011708e-06 3.0233707e-06 2.4601645e-06 1.1109211e-06 4.2245418e-07 4.6074737e-07 4.8389023e-07 3.4287922e-07
2.4831283e-07 2.706198e-07 3.7395472e-07 5.909611e-07 7.096126e-07 6.1430245e-07 4.92912e-07 5.559726e-07
4.282803e-07 5.754205e-07 5.398152e-07 5.3532153e-07 2.0898283e-06 -6.2542347e-07 -2.1387812e-06 -2.0472828e-05
-6.9232694e-05 -0.00010810769 -0.00020151297 -0.0002252817 -0.00021552597 -0.00023090983 -0.00013124618 3.615804e-05
0.0004045184 0.0010789224 0.0017429342 0.0025788455 -0.00022780313 0.0033518476 0.0026375633 0.0061707175
0.0008083337 0.009503601 0.006557159 -0.00092372444 -0.0065840427 0.017922921 0.019678703 0.015846176
0.0010689612 0.030894013 0.018375462 0.020499382 -0.005528671 -0.0021188005 0.0045767557 0.024331752
0.017662233 0.027248122 0.013907003 0.037840858 0.012939065 0.009034099 0.010852261 0.0126506165
0.023372067 0.037050974 0.027544824 0.050488688 0.044777572 -0.0009963883 0.016845237 0.022276223
0.05060567 0.029836603 0.037808836 0.02512265 -0.0121504795 0.03196033 0.05337415 0.0070853205
0.043008126 0.02615828 -0.008875931 0.011958767 0.010709107 0.050906226 0.02749766 -0.006336498
0.029478274 0.0041123796 0.025020223 0.022982268 -0.0015513592 0.019228263 0.029465131 -8.331159e-05
0.022469878 -0.0047547016 0.030357268 0.033721913 0.039475314 0.053398684 0.029690629 0.013052655
-0.008655896 0.039343122 0.037373 0.011164837 0.0071170325 0.045126077 0.047122985 0.026736727

encoder.0.bias f4 [64]
00000000: e134 8b37 add0 243e 4ba6 1c3e 74c1 393e
00000010: f20b 333e 6921 003e a3ba 4f3d 2ead f43d
00000020: a4e6 423e d5c3 dea5 8a18 573e 785a 183e
00000030: 8353 433e 338f 13be 88d8 3036 9b5d 4c87
00000040: af96 673d af05 57b3 361a 4f3e 236f 55be
00000050: 6ba2 cb3d 9f5e 97bd be17 143e a124 953d
00000060: 34bf 083e ba28 3a3e 946a 0500 141a 1d3e
00000070: 5713 24be 2451 8eae fd9c 663e 1ec7 55be
00000080: ba20 d3a6 6de9 9ebd ee7d 433e 43d6 1a3e
00000090: 2e86 18ab 0934 983d 0daa 3d3e 9d8e d63d
000000a0: d7df d6ad a1d8 cf3d b895 e3ad 84f9 3e3e
000000b0: 3515 87be 5934 9ebd 2318 553e 5c28 80ba
000000c0: 1722 41be 0850 e83d 3bd3 553e 398c 493e
000000d0: 9c03 243e d4d7 3abe 928b 1bbe cf7b 003e
000000e0: 9c1f 732b 5418 a3ae 19d8 1abe 9c1e ad3d
000000f0: 6a5b 1a3d 4588 2f3e 8c11 b83d 2047 843e
1.6594715e-05 0.16095228 0.1529781 0.18140203 0.17485026 0.12512745 0.0507151 0.11947094
0.19033295 -3.8643562e-16 0.21005455 0.14878261 0.19074826 -0.14410095 2.6352081e-06 -1.5374762e-34
0.056540187 -5.0063758e-08 0.20224842 -0.20843177 0.09943088 -0.073910944 0.14462182 0.07282377
0.13354188 0.18179598 4.9741e-40 0.1534198 -0.16023003 -6.471826e-11 0.22520824 -0.20876738
-1.4649937e-15 -0.07759366 0.19091007 0.15120797 -5.418746e-13 0.074318 0.185219 0.1047642
-2.4428388e-11 0.101487406 -2.58734e-11 0.1864987 -0.26383367 -0.07724828 0.20809989 -0.0009777653
-0.1886066 0.1134339 0.2088136 0.19682397 0.16017002 -0.18246394 -0.1518996 0.12547229
8.637481e-13 -7.4167034e-11 -0.15121497 0.08453104 0.037684835 0.17141826 0.08987722 0.25835514

encoder.2.weight f4 [32, 64]
00000000: eaea 8fb3 3d27 e5ba b8f7 68ba e3e6 80ba
00000010: d39f 93ba 2b2d 14bb 5e99 7fba 374c 9bba
00000020: 3d53 e1ba eede 29ac 7576 64ba 4584 fdba
00000030: 2cfd 0dbb 57ee 7135 2532 b2b2 ecba c930
00000040: 5a5a 87ba 3808 00b3 d4d6 49b9 4058 5c2f
00000050: 13f9 673b 5926 8333 627a a5ba 877a 41ba
00000060: 69ae e8bb 8551 f4ba db5c cd9f 0024 54ba
00000070: c014 0ea5 3f7d 9aac 04fd 78ba 4127 6d82
00000080: 6c62 0e1e 835c f292 8908 3d39 a9d9 1fbb
00000090: 64b9 fc33 acf3 28ba 0a58 afba 4793 14ba
000000a0: 510d f0ac ac1f 0ebb 023d 1937 fe35 c7ba
000000b0: 4c63 0500 18cd 4d38 bab8 19bb fcf0 f0b2
000000c0: 3315 0600 62ea a1ba 080c 58bb acc9 5bbb
000000d0: 9e78 deba cb3a 9bb1 94fe ccb5 cd8c d7ba
000000e0: 0361 03a4 ca10 5936 be2d 3e11 bff2 aaba
000000f0: 95a2 0eba bcf9 87ba bcc0 48ba 6a6f 8aba
00000100: 4653 23b7 bf90 9cbc b761 f43d 2c02 843d
00000110: b2a8 263d aecd b63d 6af4 183d 157c 013e
00000120: 12b1 7939 cc24 7eac c3ae bd3d 038d b93d
00000130: 88e4 993d 7110 b0bb 9efe 5c35 10a5 cab3
00000140: 0af9 0c3e 1a28 3c32 246d 783d 2653 08be
00000150: 7b6c 2d3e a90a 4c3b 15a7 593b 9bc9 c33c
00000160: 6f1b e33d 60b4 323e 3b69 0500 4116 a23d
00000170: 8544 96bd 2ed2 0aab 2572 b23d cbb1 ceba
00000180: 83d1 7fa5 9d33 eb3a 5807 da3d 50a9 a53d
00000190: 3050 8930 de5b a4bc 1c84 103e 6156 3a3d
000001a0: af31 c9b0 e5cd ce3d 16e6 9cb0 6ff9 73bc
000001b0: cff9 5f3d a2c4 6f3a 4fe3 9bbc bb85 2fba
000001c0: 443d 7ebd 5dae 8a3d d2ab 0e3d 2394 043e
000001d0: 2a18 533b 246f 58bd 5cb3 50bd 6485 133e
000001e0: 0b17 4ca0 d45e 0580 6029 69bd 4739 e73d
000001f0: 6c56 12bd 1410 013d fb10 183d c37c 993d
00000200: ed05 0ab8 3448 de3d f5cb cb3c 60c3 633d
00000210: 2773 d83c f496 ed3d e10b 72bc 620e fb3c
00000220: 4ebb ea3d 641b 4498 3edd f53d 13dc 7dbc
00000230: 94f3 babc 5330 06be 2cba 8e36 d864 e6ab
00000240: 0ca4 d53c 24fc 0735 8954 4e3d bbf2 11be
00000250: 2623 473d 16ce 29bd dc22 a23b 1bd9 163d
00000260: f07d dfbc ba0a 343c 7625 2137 0d39 b73d
00000270: 09f1 39bd d6f5 5fa0 bfdf d63d 5c4e 07be
00000280: 6060 0500 2c78 39bd 43d5 173d 5457 cd3d
00000290: 2f8a 1290 8e6c b33c fc61 8cbb 2aec 143d
000002a0: f635 d730 a566 0b3d 68b3 3f9a 1f44 d23d
000002b0: f69a a03d 3f70 38bd 53a4 273d 7b88 a6ba
000002c0: 4c96 01be e93a 863d 8fe3 eb3b 4cb3 f63d
000002d0: 009a ed3d 42f8 32be 6f1a 07be b4e9 cd3d
000002e0: 12e2 0d21 05f8 1394 7c3c 1dbe 3035 bf3d
000002f0: 293f 0bbb 3b4b 973c 3ef8 01bd 55ee d83d
00000300: 083d c7b7 6c0d b63d 4e33 a63d ec69 5e3d
00000310: 1c04 473d 2c2d 8b3d 4e7d 283d 475f 663d
00000320: c9a4 e53d f045 41ab 328a d93d 35fc a93d
00000330: 65ef 203e 0b6c d3bd 1da1 0d35 b9bc ceb0
00000340: 66c9 b03d 74f9 87b2 13c4 4bbc b313 e0bd
00000350: 2f78 71bc db52 07bd f0e1 2f3d afd8 ff3d
00000360: ad63 31bd bed2 a23d 51be b5b6 e11d 613d
00000370: a14a e2bd 6735 11ae 1c4f 3a3e cc23 06bd
00000380: 1766 0500 c543 15bd 1f6d dbbb 8690 123e
00000390: 5494 9a2f 45f9 b03c 570c 143e 8cbb 273c
000003a0: f143 7fb5 9979 afbc a9d5 d3ad 6b34 1a3e
000003b0: 50ef 8d3d 9e07 1cbd 702a e93c 7f1a 95ba
000003c0: cfbf e7bd feae d83d 5cb4 733d 6d8d 213e
000003d0: 639c 103e 97ed 82bd 8ee9 a7bd 3be4 a53d
000003e0: d09f bda1 3ae9 8b33 1de5 e8bd 3280 393d
000003f0: 853c 163d f1e3 133d c349 393d d2e3 d73d
-6.701687e-08 -0.0017483007 -0.00088870106 -0.0009834435 -0.0011262841 -0.002260993 -0.00097503315 -0.0011848275
-0.0017190945 -2.4140095e-12 -0.0008715161 -0.0019341788 -0.0021665795 9.0126326e-07 -2.074473e-08 1.4677801e-09
-0.001032661 -2.9809797e-08 -0.00019248883 2.0040236e-10 0.0035396263 6.107138e-08 -0.0012624974 -0.0007380624
-0.0071008694 -0.0018640017 -8.6974494e-20 -0.00080925226 -1.2323567e-16 -4.3908484e-12 -0.00094981515 -1.7423275e-37
7.5377706e-21 -1.5295153e-27 0.00018027624 -0.002439121 1.1768387e-07 -0.00064450013 -0.0013377678 -0.0005667698
-6.8226887e-12 -0.0021686358 9.133715e-06 -0.0015198586 4.94798e-40 4.9066817e-05 -0.0023456053 -2.8049264e-08
5.58618e-40 -0.0012353177 -0.0032966156 -0.0033536954 -0.0016973203 -4.5177777e-09 -1.5273276e-06 -0.001644516
-2.848827e-17 3.2345292e-06 1.5002453e-28 -0.0013042315 -0.0005441097 -0.0010374109 -0.0007658114 -0.0010561768
-9.734946e-06 -0.019111989 0.119327 0.06445727 0.040688224 0.08925949 0.037342466 0.1264499
0.00023812454 -3.6115997e-12 0.09261849 0.09060099 0.07514292 -0.0053730537 8.2326903e-07 -9.436383e-08
0.13766876 1.0952158e-08 0.06065096 -0.13312969 0.16935913 0.0031134284 0.003321116 0.023899844
0.11089217 0.1745162 4.96927e-40 0.07914401 -0.07337288 -4.931913e-13 0.087131776 -0.0015769539
-2.218871e-16 0.0017944459 0.10645932 0.080889344 9.990853e-10 -0.020063337 0.14112896 0.045492534
-1.4638796e-09 0.10097865 -1.1415888e-09 -0.014891013 0.054681595 0.0009146427 -0.019029288 -0.00066956476
-0.062070146 0.067715384 0.03483183 0.12947135 0.0032210448 -0.052840367 -0.0509523 0.14406353
-1.7287096e-19 -4.93195e-40 -0.056924224 0.11290222 -0.03572695 0.031509474 0.03712557 0.074944995
-3.2907283e-05 0.108536154 0.024877528 0.055606246 0.026422096 0.11601058 -0.01477334 0.030646507
0.11461507 -2.5346235e-24 0.12005089 -0.015494364 -0.022821225 -0.13104372 4.253603e-06 -1.6370473e-12
0.0260792 5.065833e-07 0.050373588 -0.1425275 0.048617505 -0.041456304 0.004948003 0.03682814
-0.027281731 0.010988886 9.60507e-06 0.089464284 -0.045395885 -1.8970175e-19 0.10491895 -0.13213485
4.9375e-40 -0.04528062 0.037068617 0.10026422 -2.8899876e-29 0.021902349 -0.0042841416 0.036358036
1.5658645e-09 0.034033436 -3.9642797e-23 0.10266899 0.078420565 -0.04502892 0.040928196 -0.0012705469
-0.1265499 0.06554205 0.007198758 0.12045917 0.11601639 -0.17477515 -0.13193677 0.10054341
4.807186e-19 -7.470517e-27 -0.15355104 0.093363166 -0.0021247363 0.01846849 -0.031730883 0.10592333
-2.3751069e-05 0.08889279 0.08115254 0.054300234 0.048587903 0.06795725 0.041135125 0.056243207
0.11213071 -6.866443e-13 0.10622062 0.08300058 0.15716322 -0.10323342 5.2761044e-07 -1.5042111e-09
0.08632164 -1.5829507e-08 -0.012436884 -0.10941257 -0.014738127 -0.033038 0.04294008 0.12492501
-0.04330795 0.07950352 -5.416376e-06 0.054960135 -0.110493906 -3.3016614e-11 0.1819424 -0.032748982
4.958e-40 -0.036441583 -0.006696358 0.14312944 2.811783e-10 0.021603236 0.14457832 0.010237586
-9.509377e-07 -0.021420287 -2.4082807e-11 0.15059058 0.06930411 -0.0380932 0.028462619 -0.0011375694
-0.113158815 0.10580252 0.059498176 0.15776606 0.14122157 -0.06392973 -0.08198844 0.08100172
-1.284944e-18 6.5151156e-08 -0.11371825 0.045288272 0.03667881 0.036106054 0.04523636 0.105415

encoder.2.bias f4 [32]
00000000: 7827 3d3c 9726 f83d 990b 5d3e cfc2 7b3d
00000010: fa21 b1bb 8457 f436 5267 2f3e 099a e03d
00000020: 8fd4 bd99 5344 133c feea 0cbe 8839 703e
00000030: 6075 5a3e 7351 1939 235a 0c3e c7b7 6f3e
00000040: 096b 573e 5062 0500 7e5d 9fae 4940 e73a
00000050: ca36 8c3e b45e 0500 7550 483e ffc9 a2b3
00000060: d11b af3d c8c5 4bb5 a50e 4f3e 1052 373e
00000070: 1c04 62be 2572 8c3b deb4 5f3e cd27 8f0b
0.011545055 0.121167354 0.21586455 0.06146508 -0.0054056617 7.281955e-06 0.17129257 0.1096688
-1.9627994e-23 0.008988458 -0.13761517 0.23459446 0.21333838 0.00014621559 0.1370626 0.23409949
0.21036924 4.94445e-40 -7.2470904e-11 0.001764306 0.2738555 4.9315e-40 0.19561942 -7.580456e-08
0.085502274 -7.59112e-07 0.2022043 0.17902398 -0.2207188 0.004286068 0.21846339 5.514148e-32

encoder.4.weight f4 [16, 32]
00000000: b528 8439 c893 a4bd 3e92 183e b91e a73c
00000010: 6a77 20be 8efb b32f 6c32 ef3d 1387 0f3e
00000020: 854f 3035 0c9a 3fb8 196f eebc 9d3f 033e
00000030: d42f 873d 557f a538 e1ee 82be 75d8 3cbd
00000040: 3d71 243e 13df 729c ccb9 9f34 334a 3c39
00000050: 8384 9e3e d50a ea31 48ea 1b3e 3486 8633
00000060: 7f3c afbd a493 4c2c ed6c e03d ce3f ea3d
00000070: afd0 fbbd f1bc a935 bf60 8c3e 03a0 b612
00000080: 5466 543a 53db aa3c a5da 9c3c 3625 0a3e
00000090: 9b38 d73d e1ab 1ab6 fbde fb3d ffbc a9bc
000000a0: 5d59 0580 2719 4fbc 05ab 94bd 3d41 473e
000000b0: 26dd 7e3e 5326 71b7 940e 9e3d 9bc2 563e
000000c0: 3b4d fe3d 4c30 4825 8c37 ffb7 0d60 8cb9
000000d0: 4898 683e f831 10b3 dc58 403e 1a60 0580
000000e0: 91c0 d43d dc94 57b7 435a 413e 1b80 d83d
000000f0: 0af6 c7bd 0926 8238 37d6 833e 71e7 76b7
00000100: b593 6bbd 52d8 263e fdeb 693d 4a21 613e
00000110: ca53 3dbe 8547 7e30 8da2 6a3e 8a7e 373d
00000120: 8805 b530 259a 14bc a2f6 83be dc03 2c3e
00000130: 81a3 d03d 8d8b 1539 d0d6 033e ef26 b93d
00000140: 6cbd 5b3e 1c47 d030 ed6f 8cba 0151 aab9
00000150: 2656 023e 7eaa aa38 bc0e 9a3c bba6 0dba
00000160: 439a 743d 93bb a1a6 a4df ec3d 7a9b 1f3e
00000170: 2233 45be 7c34 73bc c313 a63c bcd4 6bb9
00000180: a391 ce36 d26c 853d b2f2 503d cd4b 333e
00000190: 4056 fc3c 23f9 832f d9ca 453e 5b9f 063e
000001a0: 4968 cfb5 ebb8 0e37 5a75 54bc 92c7 98bd
000001b0: ac54 e33c 9562 de37 9ab3 d639 3e47 963c
000001c0: 8f38 873d d446 8cb6 d101 6539 b765 0f39
000001d0: e522 2e3e bf89 0580 caa5 1dbd 65b9 7422
000001e0: 15df 9d3d 8417 0600 648d 053e 746d 093d
000001f0: fd84 3cbd c180 7e3a 75ab 0e3e dc83 4882
00000200: 8d9f f639 2abf 443d 796d ed3d 8c78 71bd
00000210: 0ad6 acbd 19a6 1e30 0aac 283e 143f 913d
00000220: 4f66 ba37 862b ab3c fec5 24be 19e3 023c
00000230: 4a70 9f3d cb96 c738 7d1e d43d abb8 1f3e
00000240: 1454 0b3e 3264 fbae e6d8 70b5 5c64 a739
00000250: 2b6b 493e 5e16 e1b0 86a5 5c3e 4fc0 3ab3
00000260: f7ae b03d 4361 0500 acdc 1bbd 87dc 4cbd
00000270: a66f 8bbd 52c6 b9b9 c1e6 3a3e 5061 8bba
00000280: 7279 75ba b176 463e 354f b43c 8911 0f3e
00000290: e369 053d 35a3 0bba 660f 433e ecda 793d
000002a0: b926 8eb8 564a 823a 3fbc 99bd f8fd 223d
000002b0: 5664 46bd 4f0c 1fb7 d2d1 113e 5534 b1bd
000002c0: c6a6 003e c995 93a6 7a8b a889 239a 8939
000002d0: d5dc e83d 5c89 39ba 69b4 473d af73 55b9
000002e0: 5fe3 2b3e 1a6f 8d25 ea2c 173e 9782 c53c
000002f0: 91bc 84bd 65b1 3d2a bd88 373e d461 55b9
00000300: 047d 9dbb e174 c3bd 68d2 4d3d 8415 3b3c
00000310: 916e 3ebd 2091 c237 3fad 5d3e 958e 523e
00000320: 6e31 bfb4 6a95 8cbc 9eee 19bd 27d5 023e
00000330: 9d9d 143e e39f 4f38 89d3 903d 84c9 433c
00000340: 8828 db3d b0ef 83b9 336e e639 d728 1839
00000350: f2eb de3d 0172 8c22 2074 0abd 5ff6 5689
00000360: 3f55 f33d c9f7 0a38 9a0c 153e 80c2 553e
00000370: 88d5 18be 1bf3 30ba 8acd 5a3d 7977 88ba
00000380: 1bdb 9134 68cd 392c ab44 1f9a e20a ec30
00000390: a7e0 9937 42d8 0580 897c b9ba 5840 cbb9
000003a0: 5f98 6bb9 01a7 f61d a859 0500 f1e0 f313
000003b0: 0bf8 6417 e90c 0338 025b 0580 8b7e 1dba
000003c0: f8c0 b139 b579 8a2b fcf0 f432 903c b3b2
000003d0: d577 8513 a07a b0a7 a1a9 a023 ad60 0500
000003e0: 825c 0580 18b9 4c3a 315e 0500 2817 16ba
000003f0: d45b 0580 473d 07b5 0243 3103 f91f 54b5
0.0002520733 -0.080359995 0.14899537 0.020400392 -0.15670553 3.273865e-10 0.11679539 0.1401637
6.5680825e-07 -4.5681416e-05 -0.02910571 0.12817235 0.06600919 7.8915305e-05 -0.25572875 -0.046104867
0.16058822 -8.03594e-22 2.9751243e-07 0.00017956719 0.30960473 6.811528e-09 0.1522609 6.264273e-08
-0.085564606 2.90721e-12 0.10958276 0.11437951 -0.122956626 1.264647e-06 0.2741756 1.1525261e-27
0.0008102406 0.020856535 0.019147227 0.13490757 0.105088435 -2.3047835e-06 0.122983895 -0.020720003
-4.91235e-40 -0.012640274 -0.07259182 0.1945848 0.24889049 -1.4373642e-05 0.07717624 0.20972674
0.12417074 1.7363598e-16 -3.0424235e-05 -0.00026774444 0.2271434 -3.357306e-08 0.18783897 -4.93652e-40
0.103882916 -1.2849658e-05 0.18882088 0.10571309 -0.09763725 6.205968e-05 0.2574937 -1.4716629e-05
-0.05751391 0.16293457 0.05710982 0.21985355 -0.18488994 9.2506297e-10 0.2291357 0.04479841
1.3171055e-09 -0.009069954 -0.25774103 0.16798347 0.10187436 0.00014261734 0.12874913 0.09040629
0.21458977 1.5154202e-09 -0.0010714509 -0.0003248528 0.12728176 8.137988e-05 0.018805854 -0.0005403568
0.059717428 -1.1222461e-15 0.115660936 0.15586653 -0.19257787 -0.014844056 0.020273095 -0.00022490596
6.1562328e-06 0.065148965 0.051012702 0.17509384 0.030802846 2.4005783e-10 0.19315661 0.13146727
-1.5453053e-06 8.506914e-06 -0.012967432 -0.0745994 0.027750336 2.6510368e-05 0.00040951074 0.018344518
0.066025846 -4.1805706e-06 0.00021839819 0.00013675434 0.17005499 -5.08591e-40 -0.038488187 3.3166313e-18
0.07708565 5.59449e-40 0.13042217 0.03355165 -0.046025265 0.0009708517 0.13932593 -1.4731521e-37
0.0004703965 0.04803387 0.11593146 -0.058952853 -0.08439262 5.7716104e-10 0.16471878 0.07092109
2.2220569e-05 0.020894777 -0.16091153 0.007988715 0.07785089 9.517147e-05 0.10357378 0.15597789
0.13606292 -1.1431957e-10 -8.9722596e-07 0.00031927496 0.19669788 -1.6377262e-09 0.21547517 -4.3481403e-08
0.08627122 4.94068e-40 -0.038052246 -0.050015 -0.068084046 -0.0003543371 0.18252088 -0.001063386
-0.0009364105 0.19381215 0.022010425 0.13971533 0.032571685 -0.0005326749 0.19048843 0.060999796
-6.7783e-05 0.0009940367 -0.07506608 0.039792985 -0.04843553 -9.480004e-06 0.14240196 -0.0865256
0.12563619 -1.0240773e-15 -4.0575692e-33 0.00026245517 0.11370245 -0.0007077658 0.048756037 -0.00020356358
0.16785954 2.4534886e-16 0.14763227 0.024110122 -0.06481279 1.6848118e-13 0.17923255 -0.00020349707
-0.004806163 -0.09543777 0.050249487 0.011418704 -0.046492163 2.3194181e-05 0.2164812 0.20562203
-3.5612487e-07 -0.01716109 -0.03758108 0.12776624 0.1451325 4.9501552e-05 0.07071597 0.011949901
0.1070109 -0.00025164848 0.00043951123 0.00014511064 0.10884847 3.8067782e-18 -0.03380215 -2.5875156e-33
0.11881494 3.3132532e-05 0.14555588 0.20874977 -0.14925206 -0.0006750093 0.053418674 -0.0010411582
2.7167775e-07 2.6404105e-12 -3.29359e-23 1.7174353e-09 1.8343633e-05 -5.36756e-40 -0.0014151494 -0.00038767117
-0.00022468109 6.5288336e-21 4.9134e-40 6.1563633e-27 7.398385e-25 3.1244857e-05 -4.91825e-40 -0.0006007931
0.00033903844 9.83927e-13 2.8514926e-08 -2.0865883e-08 3.3692084e-27 -4.8982763e-15 1.7419075e-17 4.93858e-40
-4.92363e-40 0.00078095635 4.92967e-40 -0.00057254964 -4.92119e-40 -5.038059e-07 5.2092546e-37 -7.902268e-07

encoder.4.bias f4 [16]
00000000: a272 223e ad1d 803e 1fc1 513e 6900 e73b
00000010: f643 483d 42cd aa3b c1e4 7b3e d466 4539
00000020: 4edd 30bd 8b6f 66bd ab57 983d c207 72b9
00000030: f2be 2a3d 512c 043d 335e 2e3d 4878 8ab3
0.15864041 0.2502264 0.20483826 0.0070496094 0.048892938 0.005212457 0.24598981 0.0001882569
-0.043179803 -0.05625872 0.07438596 -0.00023081808 0.041686006 0.032268826 0.042570304 -6.448005e-08

encoder.6.weight f4 [8, 16]
00000000: e79b a7be 4865 18bd d4fa 8fbd 286c 2f3d
00000010: e3c0 74bd 6df1 bfbc 2970 de3d 783a 4936
00000020: af6c de3d 2211 033e 1b7e a4bd c1e2 0137
00000030: 96d1 8f3e f909 d13d 5d6c 873d 803c 23bc
00000040: b603 03be cc44 bbbd 51c4 27be c48b f5bb
00000050: 83da bdbc 6b64 f5bb b4a9 083e 7d5b 13bc
00000060: bc41 7b3b f02d 9739 4e46 863c 645f 0500
00000070: e0c0 3abe f17e a5bd a9cf 3a3c 6a58 e3b8
00000080: 61fd e73c 62f7 fc3d 6500 863d dc18 ee3c
00000090: 154d 983e 3565 283e d73a 7d3d 3358 0580
000000a0: 6821 923d e0f6 b43e d700 4b3e 2da0 78b7
000000b0: 08e6 01bd 93e2 ec3d 2809 b33d b683 e037
000000c0: 243b 2fbe 14ce 423e df43 1dbe 97f0 243e
000000d0: 70f5 cc3d 3b12 c7bd ac51 80be cdad 023a
000000e0: d8fe 463e 401c 253e 2eb2 97bd 26c2 90bb
000000f0: 914a 893e a5ca 32be a35c 2dbe 90ea b7bb
00000100: 4cca a53e 5680 843e a68f 503e 9539 903c
00000110: 56d6 953a 85e2 353e 2248 05be 5a5e 0580
00000120: dcc6 85be 9cbe 973e 380d 1b3e 3f54 8bba
00000130: d909 12be 2741 b3bd 413c 773e dd79 f711
00000140: 1de6 babd 3f09 7b3d 0962 a03e 1979 7d3e
00000150: 48cd 883e 3f00 093e 6848 673e 7998 73bc
00000160: adf8 90be 8d5e 6d3e 02ba 153e 2e10 bbaf
00000170: 3ff7 eabd 8fbd bdbd e301 0f3d 137c 3731
00000180: bb65 bcbd 7adc 393e d24a a93e e1dd ae3d
00000190: c3c9 193e 4e36 3b3e 25fc 053e d7a6 60b7
000001a0: 93c9 1dbe e909 4dbd 92d0 003e deaa b63b
000001b0: 0162 a9bd dafa 1bbd 0a93 ce3d dcd9 b2b3
000001c0: 8d34 ac3e 772e af3d 0db8 8a3e ee21 68bd
000001d0: 0b5c e93d ca3a 45bd 2df6 063e 90a6 4b38
000001e0: afaa 14be 6877 86bd bc01 fd3d ee64 0580
000001f0: b078 54be 3666 49be ec64 833e 6d83 7f38
-0.32736132 -0.037205964 -0.070302635 0.042827755 -0.059754264 -0.02343055 0.108612366 2.9985367e-06
0.108605735 0.12799504 -0.08031865 7.741794e-06 0.2808959 0.1020698 0.066124655 -0.009963155
-0.12794384 -0.09143981 -0.16383483 -0.007493468 -0.023175484 -0.0074887774 0.13345987 -0.0089939805
0.0038338741 0.0002883519 0.016390946 4.93397e-40 -0.18237638 -0.08080853 0.011402049 -0.00010840672
0.028319063 0.12351872 0.06543044 0.029064588 0.2974631 0.16444857 0.061823692 -4.90817e-40
0.07135278 0.353446 0.19824539 -1.4819246e-05 -0.031713516 0.11566653 0.08741981 2.6764214e-05
-0.17112404 0.19023925 -0.15357922 0.16107403 0.10007751 -0.09720274 -0.2506231 0.0004985005
0.19433153 0.16124058 -0.07407032 -0.0044176755 0.26814702 -0.17460115 -0.1692987 -0.005612679
0.32380903 0.25879163 0.20367298 0.017605582 0.0011431675 0.17762192 -0.13015798 -4.93024e-40
-0.2612828 0.2963761 0.15141761 -0.0010629966 -0.14261569 -0.08752661 0.24144079 3.9044833e-28
-0.09125922 0.061288115 0.31324795 0.24753226 0.26719117 0.13379 0.22586215 -0.014867895
-0.28314725 0.231806 0.14621738 -3.4026598e-10 -0.1147294 -0.09264671 0.03491391 2.6700533e-09
-0.09199091 0.18150511 0.33064896 0.08538414 0.15018372 0.18282434 0.13084467 -1.3390286e-05
-0.15408926 -0.05005828 0.12579563 0.005574568 -0.08270646 -0.038081028 0.10086639 -8.328399e-08
0.33633843 0.08553784 0.27093545 -0.056672983 0.11394509 -0.04815177 0.13179846 4.8554095e-05
-0.14518236 -0.06565744 0.123538464 -4.95384e-40 -0.20749164 -0.19667897 0.25662935 6.0919137e-05

encoder.6.bias f4 [8]
00000000: 0b3c 2f3e e897 193e 09b1 4dbd b170 403e
00000010: 64b3 0ebd e14c 8c3e 7719 9a3e e0ae 843e
0.17112748 0.14999354 -0.050217662 0.18792988 -0.03483905 0.27402404 0.30097553 0.2591467

encoder.8.weight f4 [3, 8]
00000000: 3801 043e 492f 403e e52d 003e 0f25 d8bd
00000010: a177 babe e8e1 92be 3464 4bbe fed8 9fbe
00000020: 71a2 00be fa52 3ebe 4f44 ac3e c993 8dbe
00000030: 2a96 263d 563b 463d ba09 673e aedf 0bbd
00000040: 8db5 343e 3992 343e c4b3 aabd 4565 413e
00000050: 5088 21be 9d3d 48be b689 8bbe 6314 b2be
0.1289109 0.18768038 0.12517507 -0.10553943 -0.36419395 -0.28687978 -0.19862443 -0.3122024
-0.12561966 -0.1858634 0.33645865 -0.27651814 0.04067055 0.04839643 0.22562304 -0.034148864
0.17647381 0.17633905 -0.08335069 0.18886288 -0.15774655 -0.19554754 -0.27253503 -0.3478118

encoder.8.bias f4 [3]
00000000: 72b0 83be 2efd 953e 56c0 cfbe
-0.25720555 0.29294723 -0.40576428

decoder.0.weight f4 [8, 3]
00000000: 0b6a cabe 51be d83e 777a 60bd 6374 16bf
00000010: 57b1 113f be06 7a3d bf8a f0bd 34ad 233f
00000020: 6482 f23d 3fe1 00bf 6b7d f83e 5bb9 d2be
00000030: 71f8 a13d 0a8b 23bb f043 31ba e46c f1be
00000040: 6828 1d3e e515 f6be f789 443e 5d88 2ebe
00000050: 2119 64bb 198d e5be 4fb6 b73e e626 bdbd
-0.3953403 0.423327 -0.05480429 -0.5877134 0.56911224 0.061041586 -0.11745214 0.6393616
0.11841276 -0.503437 0.48533186 -0.4115704 0.079087146 -0.00249547 -0.00067621376 -0.4715339
0.15347445 -0.4806358 0.19193254 -0.17044206 -0.0034805017 -0.4483421 0.35881278 -0.09235935

decoder.0.bias f4 [8]
00000000: 3db5 15be 5dd9 c5bd c35e 1e3f 0e80 bbbe
00000010: 3783 73be 3795 8f3e a6b6 48be 4b37 17bf
-0.14619918 -0.096605994 0.61863345 -0.36621135 -0.23780523 0.2804353 -0.19600925 -0.59068745

decoder.2.weight f4 [16, 8]
00000000: 4ef5 3e3e 0350 823e 31c1 933e 605f 97bd
00000010: d567 7ebd 172a d53e 63bc 62bd b771 f23d
00000020: 20f9 84be 34c0 04be 577f 91be 6058 ae3e
00000030: 2b4c f9bc ca79 b03d ce04 b23c fec5 273e
00000040: e2ef 0c3b 850f 9637 9d35 1b3a 7b82 2cbd
00000050: a5a5 0caa 3494 4eb4 e6f6 833d 40f9 5b3d
00000060: 3c31 4abe f94c 953e 27b7 b8bd 10bb a23d
00000070: 12ea 133d bc1d 083e a0ab 283c 1822 2d3e
00000080: 67ee b73e 9782 ffbd cb46 0d3e 2693 8e3e
00000090: 7b01 a0bb b14f 213e 3024 eb38 f052 4c3e
000000a0: 380a bf3c 3a44 e43c 950b 5b3e 9708 81be
000000b0: ee65 5137 cec8 b03e dd0e 003c 9797 78bd
000000c0: ee13 3a3e 22b3 10be 78a0 193e aef4 813e
000000d0: 8aef 35bb ae4d d53e 9698 89bd 639f af3d
000000e0: f2da 9cbd 2aba 94bd 3690 2d3e fcd2 6bbd
000000f0: b931 48bd a240 5f3d cb22 0980 f106 b5be
00000100: 722f 94bc 9f8c 323b e8cc 6bbd f5da f8b1
00000110: 09df a9b9 7fe4 dfbc c82f 953c 51d7 95bb
00000120: 826e 08be ec66 873e 9507 d33e f5fc 843e
00000130: 4e6c 89bd 8ddb 44be ace1 cfb9 514e 13be
00000140: e34d 0abd c3f5 8abd bf59 14bd c717 33ae
00000150: 9ebc c2bb dad1 ccbc c937 353c 640f 7e3a
00000160: 4dcf 2bbb 4bb3 cc38 b25e 27b0 16ed 83b6
00000170: 0acf 8cba b19a 96b5 fc5d 8bbd 8279 a6bb
00000180: d891 663e 6783 94bc 7745 553e 8bc4 983e
00000190: c2a9 992f e948 213e 15b6 a93a 4e94 8cbc
000001a0: ccc7 923c cbd8 dd3e e9b2 953e e8ca 813e
000001b0: 1aa2 68bd 5ff0 80bc 742b 043c 68ba 57be
000001c0: 37b1 c1bd e754 68bc e44b a53e f6da 52be
000001d0: ecc5 803a 84c7 abbd 91ac 22b8 0910 8dbd
000001e0: 6295 dd3d 8a8d a43d 77a5 69be f539 223e
000001f0: 1fa0 faaf fbee f13d c501 2dbd 12cf 143e
0.18648264 0.2545167 0.2885833 -0.07391238 -0.06211074 0.41633675 -0.05535544 0.11838096
-0.25971317 -0.12963945 -0.28417465 0.340518 -0.030431828 0.086169794 0.021730807 0.16384122
0.0021505286 1.788862e-05 0.000592077 -0.042116623 -1.2491967e-13 -1.9239161e-07 0.064435765 0.0537045
-0.19745344 0.29160288 -0.090193085 0.079458356 0.0361119 0.13292593 0.010294825 0.16907537
0.35924074 -0.1247608 0.13796537 0.2784664 -0.004882989 0.15753056 0.00011212414 0.19953513
0.023320302 0.027864564 0.21391137 -0.25201866 1.2481103e-05 0.34528202 0.007816044 -0.060691442
0.18171665 -0.14130834 0.1500262 0.25381988 -0.0027761185 0.41660827 -0.067185566 0.085753225
-0.07658948 -0.072620705 0.16949543 -0.057574257 -0.048875544 0.054504998 -8.39001e-40 -0.35356858
-0.01808903 0.0027244461 -0.05756846 -7.2426425e-09 -0.00032400366 -0.027330635 0.01821126 -0.004572787
-0.13323405 0.2644571 0.41216722 0.2597424 -0.067101106 -0.19224377 -0.00039650255 -0.14385344
-0.033765685 -0.067851566 -0.0362184 -4.0721006e-11 -0.005942895 -0.025002409 0.0110606635 0.00096916244
-0.002621609 9.760874e-05 -6.0888816e-10 -3.9317047e-06 -0.0010742855 -1.1220892e-06 -0.068050355 -0.005080403
0.22516572 -0.018129064 0.2082728 0.2983745 2.7951158e-10 0.1575047 0.0012947941 -0.017160561
0.017917536 0.43329462 0.2923806 0.25350118 -0.056795217 -0.015739618 0.008067001 -0.21067202
-0.09457629 -0.014180399 0.32284462 -0.2059134 0.000982461 -0.08387664 -3.8784525e-05 -0.06887824
0.10819508 0.08034809 -0.22817026 0.15842421 -4.5588508e-10 0.1181316 -0.042238016 0.14532116

decoder.2.bias f4 [16]
00000000: 61a1 253e 0391 46be a6f4 83bd 12d2 a03e
00000010: ba3b 533e cd96 733e ea68 8dbd 34a2 c33e
00000020: a459 87bc 7069 9a3e ec08 74bd 4b47 f3bc
00000030: dd00 d6bd d20b b23d f1db d63e 341f 6cbe
0.16174842 -0.19391255 -0.06443147 0.3141027 0.20628253 0.23787995 -0.069047764 0.3820969
-0.016522236 0.30158567 -0.05957882 -0.029697081 -0.104493834 0.08693661 0.41964677 -0.23058778

decoder.4.weight f4 [32, 16]
00000000: 842a 953e 9c84 0fbe 441f 8fa0 2c11 933e
00000010: 7928 39bb d385 1c3e 1bf9 85bd d9f2 86bd
00000020: 3f5a 0500 d79d 8a3e 847b f432 91d6 e221
00000030: abde b43d 9af9 653d 4879 d33d e957 793d
00000040: ed0c 2fbe 56c9 72ba 89e7 eab8 23d9 bb3d
00000050: 9f96 a63d d3c5 153e afb8 983e 2f31 30be
00000060: 6f9f 071f d564 9ebc 46f1 9f3a cc61 e81d
00000070: 16de 81bd 49c8 833e 97d7 fcbd 5766 013e
00000080: 5055 45b9 6f5b 0580 df35 2abc 31fc a4b8
00000090: 85df e3b8 3e74 eb3b f9e2 83bb f248 11b9
000000a0: 2d65 0500 cda4 1eb9 8c81 1da1 013b 55bc
000000b0: 74d7 3eba 4993 fdb8 271e 33b9 8804 4c36
000000c0: b4c2 5234 6802 7ab9 eab1 993b ca1d aeb6
000000d0: db01 853a 11f7 0480 4a59 0580 0566 0500
000000e0: fa59 652e ca08 b2bb 730e 93bb 2d8e 683b
000000f0: 1787 b6b7 b1b2 5cb1 1a37 1737 f55f 0500
00000100: 9c76 7d3d 1eda 8cba c9e8 c33b a5b3 6d3e
00000110: e1fc d03c b832 9a3e 318a b5be 3fda b13e
00000120: 0ae2 863a 883f a23e 068c f3ba 0896 8eb9
00000130: 5122 66be a409 2fbe d1ea ea3e 6579 8c3d
00000140: 97fb a8bd 9bc1 5b3d 06fd 4ab9 45d8 cfbd
00000150: cdb8 16be b876 1e3d 69e1 673e 2910 f6bc
00000160: a722 05bc 1713 733e 00a8 11ba 3179 0d1b
00000170: fcc7 183e 9cd6 d0bd d84e 703e cb4b f13d
00000180: e6fd a2a3 8574 85bb 3858 0580 ac57 9f39
00000190: 99d4 22ba e963 2abc 3f5c 0580 0c79 1618
000001a0: 6bb5 d9ba f632 072d 545e 0500 fadc 55b9
000001b0: 1c29 4fba 1fb9 a132 7c0b 01bb 10b9 4f3c
000001c0: 7b82 403c da7b a1bc eb02 30ba 8891 1a3e
000001d0: 035f 183d ae2d 56be 66f5 de3d 0e7f 2d3c
000001e0: da8e 53bc 4eb9 b03d 33e2 5925 400c b03b
000001f0: b7e9 cfbc 5eea 8fbd cf3a 0dbe 3f6c 95bb
00000200: bbbd 0dbe 6a88 a6bd 9480 08b9 6595 12be
00000210: 76df db3d 127b e33d 2aac 0c3e 13f7 c1bc
00000220: b7bc 8d3a 28f7 4c3e 9b75 28bc bd5b 0500
00000230: de5f 89bd 6301 a33d acae 263d 97a9 163e
00000240: b471 9c3e 2e44 cc38 5dc5 dfbb 51fd 863c
00000250: ba6f a03e 9bee 813e 3dea 083e 851b a2be
00000260: 020b bc3b 5e6b 0d3e f8b7 4e3a 3176 4cad
00000270: a73e d93d e381 603e e62f 13be 7477 ccbc
00000280: f634 283d aa1b 46be 0d15 503b 4d5c 863e
00000290: 17b1 e73c 4f3c 903e fabf 883e 800e 45be
000002a0: 7b50 9a38 f729 a33d 8f4e 343c 133b 03a7
000002b0: f656 bd3d 2102 b5bd 3c21 d4bd 6b86 4c3e
000002c0: a089 963e 9f1a 94bd 6e46 513c 2fda 5dbd
000002d0: ac00 9c3e db37 f63c a3ca 523e 2e24 babd
000002e0: 47a9 673c 73e5 1f3e 1163 0580 1148 d983
000002f0: b3a7 3a3e cc37 8a3e b6c5 493e b112 5b3e
00000300: be3e 813e c13a 203c 9bb4 9d99 e707 4d3e
00000310: a9d1 7f3e 9813 753d 533f 8e3e 15ae 83be
00000320: ea06 9835 1753 903e 2189 d83b 7da9 b0bb
00000330: 8381 ad3e aac0 a13e c0c0 85be 6045 45be
00000340: 2c3d 133b 53f8 97b0 309c 593c 98bb 993a
00000350: c6ce d7ba 48e7 ebb1 a6bd 4f14 e15b 7a0e
00000360: d9ae 8139 496e 6ab5 be4d 92b1 2954 540b
00000370: dabd 0ba6 5b08 52bb 0359 c4b1 92ea 15b7
00000380: 88ab 703e b39d 95bd dbdc 9938 715b d2bc
00000390: e0c9 ac3b ef22 e13c 61e0 5d3e c205 5abe
000003a0: 3379 ea38 a091 f33c 4d5e 1ebc 6fe6 ee93
000003b0: f56c 343e f3a4 0f3e e5a7 0abe b4bc 473e
000003c0: 9e86 0839 f1c6 8e3b dcdc 3592 e362 0580
000003d0: 303d 53bb 45c6 a42a 351e 8a3a de5b 0500
000003e0: a0a9 0a3c 33e9 a8bb ff3b 193c cae6 8eba
000003f0: a9dd 38bc 0edc 20af 9b95 8818 c92c 3cbc
0.29134 -0.1401543 -2.4245832e-19 0.2872404 -0.0028252883 0.15285425 -0.06541654 -0.06589288
4.91552e-40 0.27073547 2.8461507e-08 1.5371151e-18 0.08831533 0.05614624 0.10325867 0.060874853
-0.17094775 -0.0009261569 -0.00011201116 0.09172275 0.081341974 0.14626245 0.29828402 -0.17206262
2.8719242e-20 -0.01933519 0.0012202642 6.151101e-21 -0.06341188 0.25738743 -0.12345808 0.12636696
-0.00018819165 -4.91978e-40 -0.01038882 -7.867104e-05 -0.00010865837 0.007185488 -0.00402486 -0.00013855452
4.95473e-40 -0.00015129447 -5.3365123e-19 -0.013014556 -0.000728003 -0.00012091414 -0.00017082003 3.0401006e-06
1.9628607e-07 -0.00023842754 0.0046903985 -5.189072e-06 0.0010147648 -4.55973e-40 -4.91208e-40 4.95775e-40
5.2148487e-11 -0.0054331766 -0.0044878065 0.0035485134 -2.1758997e-05 -3.2115788e-09 9.013131e-06 4.936e-40
0.061880693 -0.0010746156 0.005978678 0.2321306 0.025511207 0.3011682 -0.35456994 0.3473682
0.0010290754 0.31689095 -0.0018581159 -0.00027196133 -0.22474028 -0.17093521 0.45882276 0.06859092
-0.08251112 0.053651433 -0.0001935848 -0.10148672 -0.14718933 0.038687438 0.22644581 -0.030037003
-0.008125938 0.23737751 -0.0005556345 1.1702406e-22 0.14920038 -0.101971835 0.23467577 0.117820345
-1.7671605e-17 -0.004072728 -4.90824e-40 0.00030392164 -0.0006211489 -0.010399797 -4.92269e-40 1.9448159e-24
-0.0016609853 7.685177e-12 4.93016e-40 -0.00020395583 -0.0007902549 1.882705e-08 -0.0019690683 0.0126784
0.011749859 -0.019712377 -0.0006714302 0.15094578 0.037199985 -0.20915863 0.1088665 0.010589374
-0.012912476 0.08629094 1.8898389e-16 0.005372554 -0.025379999 -0.07027124 -0.13791965 -0.004560023
-0.13841908 -0.08131488 -0.0001301787 -0.14314802 0.10735981 0.11107458 0.1373755 -0.023677384
0.0010813688 0.20016158 -0.010281946 4.92087e-40 -0.06707738 0.07959249 0.040693924 0.14713131
0.305555 9.7401775e-05 -0.0068289475 0.016478213 0.3133524 0.25377354 0.13370605 -0.3166162
0.005738617 0.13810489 0.000788569 -1.1622301e-11 0.10607653 0.21924548 -0.1437374 -0.024959303
0.041066132 -0.1934649 0.0031750828 0.26242295 0.028282685 0.28171012 0.26708966 -0.19243813
7.358283e-05 0.079669885 0.011005058 -1.8211926e-15 0.09245102 -0.08838297 -0.103579015 0.19973151
0.29401875 -0.0723164 0.012773139 -0.054163154 0.30469263 0.03005593 0.20585112 -0.09088932
0.01413948 0.15614872 -4.94716e-40 -1.2770659e-36 0.18228035 0.26995695 0.19704327 0.21393849
0.2524318 0.009779633 -1.6306365e-23 0.20022546 0.24982323 0.05983314 0.27782688 -0.25718752
1.1326895e-06 0.28188393 0.006608144 -0.0053912983 0.33887872 0.31592304 -0.2612362 -0.19264746
0.0022466881 -1.1057274e-09 0.013281867 0.0011728881 -0.0016464822 -6.865694e-09 1.0488231e-26 3.0859117e-30
0.0002473507 -8.733228e-07 -4.2579975e-09 4.089303e-32 -4.848261e-16 -0.0032048437 -5.7144702e-09 -8.935707e-06
0.23502934 -0.07305469 7.336746e-05 -0.025678368 0.005273089 0.027482478 0.21667625 -0.21291259
0.000111805646 0.029732525 -0.009666038 -6.030687e-27 0.17619689 0.14027767 -0.13540609 0.19505578
0.0001302012 0.0043572118 -5.738576e-28 -4.94651e-40 -0.0032232516 2.926983e-13 0.0010537567 4.92133e-40
0.008463293 -0.0051547526 0.009352683 -0.0010902521 -0.011283317 -1.4630094e-10 3.530624e-24 -0.011485287

decoder.4.bias f4 [32]
00000000: 55de fa3d f27f 863e 3cf8 2bbb 7b2c 05b9
00000010: f540 563e 45a2 933e 3d8d 8728 a488 81be
00000020: a0ae 0f3e f7fc 6abe c869 3b3e ad76 3b3e
00000030: b300 8fbe 1685 7eb8 629e 8e3e d348 96b2
00000040: 7664 9f3e 37ac 8e3e b737 843e a491 863d
00000050: 2d8b 903e 97ce 7cbd 4eb2 860e 5ebd b1bd
00000060: 4a38 643d c63c 243e 493c f63e efba 803e
00000070: 001e 143e 4bc2 c33d a0f7 983d e5ce 633e
0.12249438 0.2626949 -0.0026240489 -0.00012700439 0.20923217 0.2883474 1.5049263e-14 -0.2529956
0.14031458 -0.22948061 0.18302071 0.1830699 -0.2793022 -6.0682265e-05 0.27855211 -1.7495415e-08
0.31131333 0.27865764 0.25823757 0.065707475 0.28231183 -0.061720457 3.320525e-30 -0.08678697
0.055717744 0.16038808 0.4809287 0.2514262 0.14464569 0.09558543 0.07469106 0.22246893

decoder.6.weight f4 [64, 32]
00000000: 11e2 6dbd 040f 33be 1c7f d938 7bf9 b039
00000010: 5e6f 6f3e f77a 983d 4c6f 0580 e7f1 123c
00000020: 018d 88bd b54f 6bbe 1a21 5b3d 7a18 86ba
00000030: 3e96 5dbe 83c0 8eb8 4586 bd3d 3a9d 5fb9
00000040: 725c f13d 5754 1ebe c244 d6bc 6099 953c
00000050: a2d6 26be 388f 00be e137 78b9 0207 3e3d
00000060: f07a f0bd e508 0cbc 50e6 883e edb5 15be
00000070: f0fa 57be 40d7 b53d c5a3 e33d e593 3bbe
00000080: 0e3f a5bd a872 4fbd 47f0 73b5 4daa b22b
00000090: cf27 58be d938 64be 1317 1c8d ba2a cdbb
000000a0: e079 1fbd bc1b 283e d250 8a3c b00f 3ebe
000000b0: 161e 643e e0bb 3a3a e053 0cbe 246f 8cb3
000000c0: ebf1 c4bd 6c4f b0bd 45a6 17be d010 36bc
000000d0: 5824 f1bd df67 80bd b8a4 fe2b 56a8 cb3b
000000e0: d73f 81bd ab79 0abe 2588 8dbe 8931 5fbd
000000f0: 2d63 c9bd 89ea 98bc a085 a63c 4ecb 3abe
00000100: 76ac b53d a9a1 b4bd b590 5bba f8c7 8927
00000110: 19ce e23d 3274 683e 8f61 a939 4bd0 61bd
00000120: 01e6 483e e1d4 a0bd 06bf 003e 12d5 0e3d
00000130: 5fe7 febd 16c6 831d db63 0a3e 7500 4a26
00000140: a3c7 403e 7f48 d13d 1170 91bd 7d57 403c
00000150: 2eaa 72bd 6334 873b 9b14 0398 b814 c83c
00000160: fa49 10bd b39a 4c3e 84eb 363e c078 28bd
00000170: 2b0d 013d b054 893d 0006 043e ace2 88bd
00000180: a0d2 8e3d c995 e33c 8714 dfb5 68b9 ed39
00000190: 36b2 153e 9866 51be 8b7f 23ba 3927 6f3d
000001a0: ae01 52be f138 bbbd 3d0d e0bd 7736 30bd
000001b0: 1282 6f3c 49da 8130 63ee 03be 1e73 843a
000001c0: bf11 4dbd 7122 5b3a d844 3ebe 19ba 88bb
000001d0: 9358 cf3c aa07 d63c 7aa6 a6b7 b8e2 a0bd
000001e0: 9269 c2bd 2c99 b13d 88df dd3d 29f4 49be
000001f0: 7efb 9abd 5507 dabc 84e0 d0bd 1bd7 5ebd
00000200: 1f02 213e 5c7d 8ebd bfb9 d2b9 939f 0d3a
00000210: 4bc6 973d a55e 403e 06cb ec9f 9101 19bd
00000220: 10c3 633d 703f 023e 01ea 0f3e 33ea 383d
00000230: 706a a53d 998d 2c31 1df9 133e 3c9f d8b9
00000240: 6ec6 6b3e 2137 7fbd 6a38 123e 2b25 89bc
00000250: 5c30 d73d 0672 263e fe8e e238 8e40 b1bd
00000260: fae0 5f3e a6aa d03b 5f83 193b e3ea d0bc
00000270: 37d8 91bd c056 a9bd db5e 6a3d b591 473e
00000280: f96f 953d 21db 6c3e ca9e 7035 12ec cdb7
00000290: 0808 c2bd 6511 413e b6fc d320 b3b2 91bc
000002a0: 3272 4e3d b46f c83d b63c 903d 0c54 323d
000002b0: 876c 823d 2667 3209 67ce 2fbd bb5d b517
000002c0: 7aa8 433e 1944 3abd 56c5 dcbc a5b2 63bc
000002d0: e8df 9ebd 5489 183e d1cf 3fb6 921c 1cbd
000002e0: 52a7 c03b b237 223d 19d0 fcbd 24d3 cf3d
000002f0: 3e1e 1c3e e284 c1bc 4874 6bbd 6881 0a3c
00000300: 73bb b83d 8ba0 c53c fdfe 3db6 1a8e 1938
00000310: 4197 18be aded e9bb ed8a 2b36 987d fb3c
00000320: 91f1 1dbd 0245 a43d c2c8 12be 93e8 adbd
00000330: ee19 583e b9d5 00b7 5488 47bb 6f61 0500
00000340: c8ef 2dbe c890 b3bd 60f8 4ebe 96a4 17bd
00000350: 77ac c7bc c75b e23d 8424 203a e65b febc
00000360: 873c de3d 2057 8d3d 978d 8abe 2e1f 183d
00000370: 3048 f9bd 9598 a53b bd24 3cbd 2a44 e73c
00000380: bdf4 efbd dec7 65be 869a adb5 7b3c 7631
00000390: 53df 893e ecdd 32bd 2c63 0580 5256 bb3d
000003a0: cb63 eabd 98f5 5fbe b7d3 f9bd 0654 a3bd
000003b0: 81de 3fbe 907d 30b9 6b6f cbbb 1416 9035
000003c0: bba8 b13b 71a5 8d3d c21d 083c 4f92 973b
000003d0: 3105 26bc f296 573d 5c82 85a3 5c36 afbc
000003e0: 26a4 0fbe cd0e 963d 6587 783e d169 1c3c
000003f0: 09f1 8f3c 4d8d 39bc 1984 cc3d a8a1 7abc
-0.05807692 -0.17486197 0.00010371042 0.00033755213 0.23382327 0.07445329 -4.99103e-40 0.008968807
-0.06667519 -0.22979625 0.053498365 -0.0010230683 -0.21639344 -6.806946e-05 0.092541255 -0.00021325509
0.11785211 -0.1546186 -0.026155833 0.018261611 -0.16292813 -0.12554634 -0.0002367194 0.046393402
-0.117421985 -0.0085470425 0.26738214 -0.1462018 -0.21091819 0.08878946 0.11115221 -0.18318136
-0.08068667 -0.050646454 -9.0874204e-07 1.2694929e-12 -0.21108936 -0.2228731 -4.8098986e-31 -0.006261197
-0.03893459 0.1641683 0.016884241 -0.18560672 0.22277102 0.00071233325 -0.13703871 -6.5394744e-08
-0.09616455 -0.086088985 -0.1480952 -0.011112407 -0.1177451 -0.06269812 1.8093504e-12 0.0062151356
-0.063110046 -0.13522975 -0.27642933 -0.0544906 -0.098333694 -0.018666523 0.02032739 -0.18241617
0.08870785 -0.08819897 -0.000837575 3.8241945e-15 0.11074466 0.22700575 0.0003230688 -0.055130284
0.1961899 -0.078531034 0.1257287 0.03487117 -0.12446474 3.4880227e-21 0.13514654 7.008345e-16
0.18826155 0.10218906 -0.07101453 0.011739609 -0.059244327 0.004126118 -1.6941756e-24 0.024423942
-0.0352268 0.19980888 0.1786328 -0.04113078 0.0315067 0.06705606 0.12892914 -0.06683859
0.06973767 0.027781384 -1.6620769e-06 0.000453423 0.14618763 -0.20449293 -0.0006236962 0.058387015
-0.20508453 -0.0914172 -0.10940025 -0.04302069 0.0146184135 9.448026e-10 -0.12883906 0.0010105108
-0.050065752 0.0008359319 -0.1858095 -0.004172575 0.02531079 0.026126701 -1.9866264e-05 -0.07855743
-0.09492792 0.08671793 0.10833651 -0.19722046 -0.075674996 -0.026614824 -0.10199073 -0.05440436
0.15723465 -0.06957504 -0.00040192713 0.00054025016 0.07410868 0.18786104 -1.0028576e-19 -0.03735501
0.055605948 0.12719512 0.14054109 0.045145225 0.08076942 2.5109783e-09 0.14450498 -0.0004131737
0.23024914 -0.062308434 0.14279333 -0.016741356 0.10507271 0.16254434 0.00010803154 -0.08654891
0.21863165 0.006367999 0.002342425 -0.025502628 -0.07121318 -0.082684994 0.057219367 0.19489177
0.07296748 0.23130466 8.9638036e-07 -2.4547833e-05 -0.09474188 0.18854292 3.591202e-19 -0.017785406
0.050401874 0.09786931 0.0704283 0.043537185 0.06368356 2.147447e-33 -0.04292145 1.1720512e-24
0.19107237 -0.0454751 -0.026949566 -0.013897573 -0.077575505 0.14896137 -2.8582183e-06 -0.038113184
0.005879321 0.039603896 -0.12344379 0.10147694 0.15245911 -0.023622934 -0.05748394 0.008453704
0.09020128 0.024124404 -2.8311617e-06 3.6610385e-05 -0.14901449 -0.007138929 2.556185e-06 0.030699536
-0.038560454 0.08020975 -0.14334396 -0.08491626 0.21103641 -7.679156e-06 -0.0030446248 4.9413e-40
-0.16986 -0.08767849 -0.20211935 -0.037022196 -0.02437423 0.110526614 0.0006108957 -0.03104968
0.108513884 0.069013834 -0.2706115 0.03713911 -0.12171972 0.0050535896 -0.045933474 0.028230745
-0.11716602 -0.22439525 -1.2934477e-06 3.583209e-09 0.26928195 -0.043668672 -4.94754e-40 0.09147324
-0.11444815 -0.2187103 -0.121985845 -0.079750106 -0.18737222 -0.00016831444 -0.0062083504 1.0735262e-06
0.0054217256 0.06916321 0.008307876 0.0046255956 -0.010133074 0.052634187 -1.4475098e-17 -0.021388225
-0.14027461 0.07327042 0.24270399 0.009546713 0.01757099 -0.011325193 0.09986133 -0.015297331

decoder.6.bias f4 [64]
00000000: a7f6 11be 24fc e93c e82f 243e 25bb 1d3a
00000010: 64c1 adbd bae8 8b3c 65a4 3bbe 9674 d6bd
00000020: fe2c 153e 4d71 4b3e 9605 4f3e 6321 0d3e
00000030: 29ed 5ebe 7171 453e 2cbd 3b3e d27e debd
00000040: 5359 353e dccd 25be cc5a 143e 9447 3d3e
00000050: 9aa4 3ebe 8d89 023e 9daf 583e 21b9 d63d
00000060: 03a7 17be d0c2 bb3d 3fa9 d7ba eab7 9ebc
00000070: 81e8 c4bd 0e1d 63be 54d6 2f3d a8bf 0fbe
00000080: f7e0 233e 1928 ba3d e00d 253c a702 45be
00000090: 74a8 42bc 6c4b 6b3d 7053 1b3e 7b0b dc3d
000000a0: f2e5 ee3d e4c2 78bd 1222 7fbd 86c8 24be
000000b0: 7e56 c1bd 4c43 33be 10d7 c93d 6ef1 0d3e
000000c0: 2999 b1bc a041 a4bc d91f 26be f6ff a53c
000000d0: 2506 0bbe e290 3c3d 29ef 15be 36b6 1cbd
000000e0: 1617 f53d 1cda 04be 1dd2 163e 68c6 47bc
000000f0: da5c 543e 63d8 343e f748 323e f566 4d3e
-0.14254247 0.028562613 0.160339 0.00060169614 -0.08484152 0.017078746 -0.1832443 -0.10471456
0.14567944 0.1986744 0.20216975 0.13782267 -0.21770157 0.19281556 0.18333882 -0.10864033
0.17709856 -0.1619181 0.14487761 0.18484336 -0.18617478 0.12747784 0.21160741 0.10484529
-0.14809804 0.09168017 -0.0016453638 -0.019374806 -0.09614659 -0.22179052 0.04292901 -0.14037955
0.16003786 0.09089679 0.010074109 -0.19239293 -0.011880983 0.057444975 0.15168548 0.10744377
0.11664952 -0.060732737 -0.06228835 -0.16092119 -0.09440325 -0.1750614 0.09855473 0.1386163
-0.021679478 -0.020050824 -0.16223086 0.020263653 -0.13576563 0.04603661 -0.14642014 -0.038259707
0.11967294 -0.12973827 0.1472859 -0.0121933 0.20738545 0.1766067 0.17410646 0.20058806
