spectral_model.pth (torch, 114242 bytes, 20 tensors)

encoder.0.weight f4 [64, 164]
00000000: 917d 0500 095b 0600 3289 0500 9213 0600
00000010: ad8f 0580 9173 0580 4e81 0580 4a5a 0580
00000020: c360 0580 3ca1 0680 cd64 0580 4958 0580
00000030: 5163 0500 305b 0580 0662 0580 5463 0580
00000040: fd60 0500 425c 0500 825a 0500 7e5a 0500
00000050: 6a5e 0500 3861 0500 7959 0580 7065 0580
00000060: ba5f 0580 a959 0580 215b 0500 c357 0500
00000070: 9460 0500 fd63 0500 b659 0500 935b 0500
00000080: 345f 0500 e35b 0500 5d59 0500 e95e 0500
00000090: 6662 0500 905d 0500 7764 0500 b45c 0580
000000a0: d863 0580 3461 0580 485b 0580 a25b 0580
000000b0: 285e 0580 e262 0580 fa64 0580 555f 0580
000000c0: 375f 0580 d064 0580 975d 0580 3b5c 0580
000000d0: 332d 0580 071b 0480 0993 0280 d27a 0080
000000e0: dc63 0200 bf26 0600 06f2 0800 0cf9 0b00
000000f0: 9841 0f00 cc33 1200 6119 1400 d4fd 1100
00000100: 7bdd 1100 5b8c 1500 1cfc 1800 97cc 1b00
00000110: bb53 1c00 a588 1d00 c1bb 2000 a6ca 2000
00000120: 4959 1600 f18c 0800 078d 0d00 86c1 1c00
00000130: f537 2600 f3ba 1d00 3e84 0e00 1c91 0200
00000140: 2b0e 0280 8836 0380 bd7d 0280 b7a2 0080
00000150: efb9 0300 fa47 0f00 2895 2a00 d1a4 0b80
00000160: 9f65 8881 9930 4c82 ed3c b882 63b0 0f83
00000170: 0e8f 4183 4e8d 4483 201c ac01 e879 e103
00000180: 459e 0184 8ad8 0287 564f 2988 0ed8 4f07
00000190: 7223 100a 6532 d50a cc58 070b dd75 2f0b
000001a0: 406f b70b fac3 720c 62e3 0e0d 6fba 8d0d
000001b0: 28a0 ff0d a5c1 840e d438 210f 69e8 b30f
000001c0: 75b9 2b10 8b3a 9410 1ada e010 457c ef10
000001d0: d5ba d40f b282 8991 007e 8092 4ba6 1493
000001e0: 2ad3 ac93 88d5 1c94 6b64 8094 9122 d894
000001f0: f892 3a95 ef7b 9595 ab77 d395 ee0c f695
00000200: 021a 0396 c49b 2196 4342 5696 c38a 9296
00000210: 74cf bf96 0306 dc96 6e1a cf96 b196 d896
00000220: 9ad5 1397 2558 7097 1f8a b797 7e62 0098
00000230: c37a 2f98 e8c6 6398 d5ca 5f98 8d51 5898
00000240: a330 8698 56d9 8698 33f0 1698 ee1d f896
00000250: 8dab 2195 32e2 8492 0c25 180e 41ac 100d
00000260: 37e9 c208 7074 bc88 4844 fd87 a35e 7987
00000270: 0afb a486 edae d484 1633 7b04 88c3 5704
00000280: d616 3904 69c3 1004 8af3 c703 d5c7 b703
00000290: 6786 a1bb 32ff 4fbb 1028 b8bb 1736 8fbb
000002a0: beb9 84bb da70 f1bb 165a 21bc 5bbd 7ebc
000002b0: aaec aabc 346c c1bc 73ba c7bc 9710 cbbc
000002c0: 23d5 b9bc 3d6d c4bc ae6f c8bc 7f6e cbbc
000002d0: 70cb c6bc d6c4 c7bc 775c cbbc 4cba d8bc
000002e0: 06e6 e9bc 0a32 f7bc 96ce 05bd 7d8c 12bd
000002f0: f145 2fbd d63a 44bd d641 47bd ee7b 39bd
00000300: 9d4a 31bd 9506 27bd 50d1 1cbd 2ffa 0dbd
00000310: 87e7 f8bc 0503 d6bc 988d b6bc 06ce 99bc
00000320: 5afb 77bc 7a92 44bc a44d 1bbc 8916 dfbb
00000330: 1d52 73bb 57db 7cb9 2e36 6c3b 7d15 df3b
00000340: a9d4 023c 079f 0f3c f218 353c fc62 5e3c
00000350: b895 7b3c 29da 743c 9fd9 653c d054 553c
00000360: 288f 473c 6296 413c 72d5 3f3c 170a 393c
00000370: a96a 273c 3bde 2c3c 3a0e 303c 699b 123c
00000380: 037a dc3b 0a55 973b 1a3d 4f3b c70c da3a
00000390: 0727 dd38 08c0 08bb bb55 79bb 32ad 9bbb
000003a0: 882a aabb b63f c0bb fd19 e5bb a7e0 fbbb
000003b0: 8f8b efbb dd2d ccbb e11e d3bb 8579 d7bb
000003c0: b3f4 c8bb 8268 98bb b359 36bb b399 e0b9
000003d0: 7757 9aba f50c 70bb eb03 bebb 991f e2bb
000003e0: 152d b9bb b020 e8bb 3c54 3dbc 55d4 6fbc
000003f0: d706 70bc 9601 40bc 56e5 1fbc dfb4 0fbc
5.04222e-40 5.8367e-40 5.08394e-40 5.58033e-40 -5.10719e-40 -5.00635e-40 -5.05563e-40 -4.91567e-40
-4.93889e-40 -6.08853e-40 -4.95338e-40 -4.90848e-40 4.94805e-40 -4.9189e-40 -4.94342e-40 -4.9481e-40
4.9397e-40 4.92273e-40 4.91646e-40 4.9164e-40 4.93047e-40 4.94053e-40 -4.91274e-40 -4.95566e-40
-4.93518e-40 -4.91341e-40 4.91868e-40 4.9066e-40 4.93823e-40 4.95047e-40 4.9136e-40 4.92028e-40
4.9333e-40 4.9214e-40 4.91235e-40 4.93225e-40 4.94476e-40 4.92741e-40 4.95217e-40 -4.92433e-40
-4.94995e-40 -4.94047e-40 -4.91923e-40 -4.92049e-40 -4.92954e-40 -4.9465e-40 -4.95401e-40 -4.93376e-40
-4.93334e-40 -4.95342e-40 -4.92751e-40 -4.92264e-40 -4.75392e-40 -3.77038e-40 -2.36417e-40 -4.406e-41
2.19494e-40 5.64912e-40 8.21506e-40 1.099532e-39 1.401063e-39 1.67162e-39 1.845814e-39 1.65226e-39
1.640656e-39 1.978895e-39 2.294492e-39 2.552951e-39 2.601431e-39 2.712248e-39 3.006089e-39 3.011432e-39
2.05241e-39 7.85244e-40 1.244453e-39 2.640817e-39 3.509822e-39 2.730294e-39 1.333137e-39 2.35726e-40
-1.88754e-40 -2.95069e-40 -2.28777e-40 -5.8371e-41 3.42207e-40 1.403353e-39 3.910598e-39 -1.069315e-39
-5.010433e-38 -1.50015e-37 -2.707134e-37 -4.2226405e-37 -5.688182e-37 -5.7761433e-37 6.322318e-38 1.32523e-36
-1.5236551e-36 -9.843748e-35 -5.0949847e-34 1.5636442e-34 6.940014e-33 2.053011e-32 2.6066858e-32 3.3792445e-32
7.0656426e-32 1.8701976e-31 4.403083e-31 8.734678e-31 1.5754145e-30 3.2726985e-30 7.9488576e-30 1.7740284e-29
3.3866675e-29 5.8465907e-29 8.868846e-29 9.4460346e-29 2.0976779e-29 -2.1695336e-28 -8.108997e-28 -1.8762215e-27
-4.3627128e-27 -7.918099e-27 -1.2964305e-26 -2.182406e-26 -3.767834e-26 -6.0376153e-26 -8.5411024e-26 -9.937901e-26
-1.0590302e-25 -1.3054627e-25 -1.7307691e-25 -2.3675143e-25 -3.0988636e-25 -3.554671e-25 -3.3459333e-25 -3.4991782e-25
-4.7767865e-25 -7.7659436e-25 -1.1860964e-24 -1.6593338e-24 -2.2680199e-24 -2.9439484e-24 -2.8924478e-24 -2.7958518e-24
-3.46873e-24 -3.485764e-24 -1.9508315e-24 -4.008545e-25 -3.264902e-26 -8.386133e-28 1.8753284e-30 4.458077e-31
1.1730779e-33 -1.1342213e-33 -3.8107341e-34 -1.8760489e-34 -6.205881e-35 -5.0001604e-36 2.9528366e-36 2.5362912e-36
2.1757131e-36 1.7016847e-36 1.1752083e-36 1.08016525e-36 -0.004929352 -0.0031737802 -0.00562001 -0.0043704617
-0.0040504625 -0.0073681893 -0.009848138 -0.015548076 -0.020864803 -0.023611166 -0.024380898 -0.024788184
-0.02268464 -0.02397787 -0.024467316 -0.024832962 -0.024266928 -0.02438585 -0.024824364 -0.02645602
-0.028552067 -0.030175228 -0.03266772 -0.03577851 -0.04279131 -0.047907673 -0.04864677 -0.045284204
-0.043284047 -0.04077776 -0.038285553 -0.03466242 -0.030383838 -0.026124487 -0.022284314 -0.018774997
-0.0151356105 -0.011997813 -0.00947896 -0.0068081063 -0.00371278 -0.00024114303 0.0036043036 0.0068079815
0.007985272 0.008765942 0.011053311 0.013573404 0.01535552 0.014944592 0.014028936 0.013020709
0.012180127 0.011815639 0.011708604 0.0112939095 0.010218301 0.010551031 0.010745579 0.0089481855
0.006728412 0.0046182917 0.0031622113 0.0016635888 0.000105453706 -0.0020866413 -0.0038045484 -0.004750871
-0.0051930584 -0.00586697 -0.0069916234 -0.0076866928 -0.007310338 -0.0062310533 -0.00644289 -0.0065757656
-0.006132686 -0.00465113 -0.002782446 -0.00042839124 -0.0011775334 -0.0036628817 -0.005798807 -0.0069007394
-0.005651126 -0.007083975 -0.011555728 -0.014638026 -0.014650068 -0.011719128 -0.009759268 -0.00877115

encoder.0.bias f4 [64]
00000000: 3568 c7a7 8e30 b63d 5b73 013e 55ab 0580
00000010: 13e2 953c d1c3 5e3b ff32 e43c 24c7 cc3c
00000020: 06b4 143d 84ce b33c 08c9 a13c eb08 f7bc
00000030: 5d85 faa4 23b5 143b 495f 0500 b570 f0b1
00000040: 84cf 813c f8c8 193e eb43 11ba 0ab6 b2b5
00000050: 8c7d c29a 08ae 843c a2fa 1dbc 12db 9c3c
00000060: d97a b83e 0787 5abf aa4d cc3c fd4f b03d
00000070: caaa 15bd 5e69 0580 ecb7 253c ab7d ab3c
00000080: 8c04 cbbc 0d23 133d d74b 933c 8069 073b
00000090: de41 d4bc f1b3 3dbc 1770 0500 9d29 9a17
000000a0: 1b4e 5a3c 1031 433d 7c81 acbb 07c3 4faa
000000b0: 4936 a7bc f881 ddb9 6ecc 873e 881d b1bb
000000c0: e868 0580 2787 9c3d 3b5d e1a1 a11e 00bb
000000d0: b28e 953c f64c 903e fa2d 19bf 661e 10ac
000000e0: a248 e53c 5e33 3e21 68be 41bf 1b24 f93c
000000f0: 57fa b93c fdef 0ebd 9c69 b73c d567 0580
-5.5346577e-15 0.0889598 0.12641661 -5.2064e-40 0.018296277 0.0033991227 0.027856348 0.024997301
0.036304496 0.02194906 0.01974918 -0.03015562 -1.08646143e-16 0.0022690974 4.9336e-40 -6.9977326e-09
0.015846021 0.1501807 -0.00055414316 -1.3315014e-06 -8.043935e-23 0.016196266 -0.009642275 0.01914743
0.36031225 -0.85362285 0.024939377 0.086090066 -0.03653983 -4.96976e-40 0.010114651 0.020933947
-0.024782442 0.0359221 0.0179805 0.0020662248 -0.025910314 -0.011578546 4.99388e-40 9.962521e-25
0.013324286 0.04765421 -0.005264459 -1.8452957e-13 -0.020411627 -0.0004224924 0.26523155 -0.0054051317
-4.96811e-40 0.07642966 -1.5271271e-18 -0.0019549506 0.018256519 0.28183717 -0.5983578 -2.0480505e-12
0.027988736 6.444249e-19 -0.7568116 0.030412724 0.02270238 -0.03489684 0.022389226 -4.96425e-40

encoder.2.weight f4 [32, 64]
00000000: 11e1 f4a9 859b e9bb 5f52 01bd c6a5 0600
00000010: b2a0 1abc cb5e 74bb 119a c83c e166 693d
00000020: 50b9 4a3d c8a3 043d 96a7 5a3c 1751 153d
00000030: a4a6 1ca3 7d82 eb3a 705a 0580 897a 9b31
00000040: 92c6 06bc 076c a43d c427 233a 20c2 6f34
00000050: 419d ea1a 1e88 18bc 5aa1 493d e694 303c
00000060: 0b38 0ebe 0dc1 883d 4b7e 883c ef57 dfbc
00000070: 0152 153d 2e5c 0580 13c6 353b 54ce 0e3d
00000080: afb2 f53c 3d95 193d e14a ca3c 488d 69bb
00000090: f32b d63c 0951 893c 9879 0580 9fa5 9996
000000a0: 6d03 2c3b fbed 903d b269 c33c 4a25 bca9
000000b0: eacf 943c 075f 4a3b 228c 96bd 76bc 99ba
000000c0: a4a9 0500 e5a5 913d bf90 43a2 f6aa 4eba
000000d0: d418 88bb eb89 87bc 3473 8a3e be61 28ab
000000e0: edae 7b3c 9342 3da0 f66d 583e 282f fc3c
000000f0: 6664 0f3d 971a 84bd 1ae6 15bc 2f59 0580
00000100: ecfe 9aa8 2ee9 933d e1fa c5bc 9f81 0580
00000110: a819 3d3d 8b81 2f3c 7720 3ebc 2c0d fab9
00000120: d292 9dbc 4788 4dbc 5b76 2d3d d8e3 293d
00000130: e3a1 4723 f039 fcba 94e6 0580 1041 beb0
00000140: d9ca 273d 1b94 a2bd b794 7439 a7dd 30b5
00000150: 5032 c81a c990 3c3d 9575 c03c 3665 e0bb
00000160: 1a7f a73d 4b1d 933e ab1a 12bc fb45 bf3d
00000170: 4210 4f3d 7379 0500 5135 40bb 3d7b 4cba
00000180: bbfd 073d 8bc7 80bc b5f0 82bb 1ee9 043c
00000190: 91c4 063d aafc 5b3c d478 0500 17da 5396
000001a0: 2cfd b6bb ce7b 87bd 74a9 2e3c 969b ce29
000001b0: 48ad bf3c 9b1b 99b9 d354 ac3d 1e07 e4bd
000001c0: a765 0580 e0d5 1abd fb2b 72a0 35bf 72ba
000001d0: 4f43 80bb 4e5e c53d ddd5 96bc c8a0 2c2c
000001e0: 15b3 56bc e4f7 d09f c906 d83d 48db 5cbc
000001f0: d63b 10bc 13b9 ae3d b9ac 5a3d 397c 0500
00000200: d16a 0a2d dc0c 873d dcf6 65bd 60ea 0500
00000210: 16c9 443d ff44 653c f224 393c 252d 5f3d
00000220: 2590 cc3c 41d4 953c 9260 9d3d bfb1 b63d
00000230: 072a 4d24 6f1c f43a 20d8 0600 1368 a430
00000240: 75e2 2f3d c359 c7bc d29f 83ba 5506 5c34
00000250: 0da7 0d1b b095 5a3d e4a6 993d 01ac 923b
00000260: 3591 12bd bd21 c33e ce37 e23b 1a56 9f3d
00000270: 492e e03d 4a64 0500 1392 8f3a d484 143d
00000280: e46a 983d 3452 823c 982b c43c aad2 393c
00000290: 97e2 883d 00db 1b3d 5b9b 0500 277c 0197
000002a0: ba08 65bb 7013 a4bc b42f 163d fb96 912a
000002b0: 7009 5e3d fbe9 1b3a 5ce5 d13c 3705 02be
000002c0: 1d60 0500 247d 583c 148e cb9f b36e f3ba
000002d0: 18bd 01bc fa79 b23d fd9a 543e fe67 0a2c
000002e0: 97ff 18ba 4d9f 95a0 0c2b 983e fd98 683c
000002f0: d8b0 d33c 60e9 1c3d de85 7b3d 8cc2 0500
00000300: cf67 0580 b785 0580 f777 0580 1f6b 0580
00000310: e35a 0500 fe82 0680 3861 0500 886c 0500
00000320: 8858 0500 2679 0500 3c66 0580 df5c 0580
00000330: 475c 0580 887a 0580 da76 0500 e39c 0580
00000340: 3761 0500 0172 0500 4a87 0500 4590 0500
00000350: 8589 0600 ac29 0680 159f 0680 7a84 0580
00000360: 7213 0600 c9e1 0500 2c95 0500 2d98 0580
00000370: ae60 0580 ee6f 0580 4276 0500 ce75 0580
00000380: 8965 0580 bd74 0500 f886 0580 14b7 0580
00000390: 2067 0580 ae69 0580 fd7f 0580 f266 0580
000003a0: 418f 0580 3c61 0580 276b 0580 b1b5 0580
000003b0: 7a69 0580 d36d 0580 122e 0680 b604 0680
000003c0: 59a8 0500 26e6 0580 4e6f 0580 a291 0580
000003d0: 3b6f 0580 188d 0580 33a5 0580 fb57 0580
000003e0: 7c6d 0500 8fd5 0500 6e5c 0500 d07d 0580
000003f0: b06f 0500 4b59 0580 1e6e 0500 7a78 0500
-1.08748195e-13 -0.007129135 -0.031572696 6.10481e-40 -0.009437727 -0.0037287946 0.024487527 0.05698288
0.049493134 0.032382756 0.01334562 0.036454286 -8.4920645e-18 0.0017967966 -4.9162e-40 4.5250244e-09
-0.008226054 0.08028417 0.0006223882 2.2329232e-07 9.703419e-23 -0.009309797 0.049226142 0.010777688
-0.13888566 0.066774465 0.016661784 -0.02726361 0.03645516 -4.92245e-40 0.002773647 0.03486474
0.02999243 0.03749584 0.024693908 -0.0035637189 0.026144003 0.016762273 -5.02797e-40 -2.4823005e-25
0.002624716 0.07076641 0.02385411 -8.355346e-14 0.018165547 0.0030879395 -0.07350947 -0.0011729139
5.20033e-40 0.0711172 -2.6504056e-18 -0.00078837515 -0.0041533504 -0.016545257 0.27041018 -5.9821234e-13
0.01536153 -1.603095e-19 0.21135697 0.030784205 0.035007857 -0.06450384 -0.009149099 -4.9117e-40
-1.720799e-14 0.0722221 -0.02416748 -5.05677e-40 0.046167046 0.010712038 -0.01160442 -0.0004769353
-0.019235048 -0.012544698 0.0423492 0.041477054 1.08220925e-17 -0.0019243341 -5.41893e-40 -1.3842811e-09
0.040964935 -0.07938405 0.00023325054 -6.5887656e-07 8.2799345e-23 0.046036515 0.023493567 -0.006848003
0.081785396 0.28733286 -0.008917491 0.093395196 0.050552614 5.02745e-40 -0.0029328654 -0.00078003464
0.03320096 -0.01572015 -0.0039959797 0.00811222 0.032902304 0.013426939 5.02522e-40 -1.7113261e-25
-0.0055843797 -0.06615411 0.010660518 9.1752276e-14 0.023398057 -0.00029203002 0.084146164 -0.1113417
-4.95643e-40 -0.037801623 -2.0512749e-19 -0.00092600595 -0.003914274 0.09637128 -0.018412525 2.4531922e-12
-0.01310422 -8.850153e-20 0.10548169 -0.013480015 -0.0088033285 0.08531394 0.053387377 5.0374e-40
7.86811e-12 0.065942496 -0.056143627 5.43255e-40 0.048043333 0.013993501 0.011300312 0.054486413
0.024971077 0.018289687 0.07684435 0.08920621 4.4487888e-17 0.0018624197 6.28544e-40 1.196215e-09
0.042940576 -0.024334794 -0.0010042137 2.04914e-07 1.1717224e-22 0.05336541 0.07502535 0.004476071
-0.03578301 0.38111678 0.006903625 0.077800944 0.10946328 4.95154e-40 0.0010953568 0.036259487
0.07442263 0.015908338 0.023946568 0.01134173 0.066838436 0.03805065 5.14909e-40 -4.183885e-25
-0.0034947828 -0.0200288 0.036666587 2.5861938e-13 0.05420822 0.00059476466 0.025622062 -0.12697302
4.93656e-40 0.01321343 -8.620889e-20 -0.001857242 -0.007918619 0.087146714 0.20762248 1.9668707e-12
-0.00058364257 -2.5346998e-19 0.29720342 0.0141966315 0.025841162 0.0383085 0.061406963 5.28968e-40
-4.96417e-40 -5.07145e-40 -5.02213e-40 -4.97605e-40 4.91781e-40 -5.98004e-40 4.94053e-40 4.98111e-40
4.90937e-40 5.02637e-40 -4.95852e-40 -4.92493e-40 -4.9228e-40 -5.03133e-40 5.01813e-40 -5.15458e-40
4.94052e-40 5.00074e-40 5.0771e-40 5.10932e-40 6.00346e-40 -5.65962e-40 -6.08081e-40 -5.06701e-40
5.57989e-40 5.40174e-40 5.1269e-40 -5.13768e-40 -4.9386e-40 -4.9933e-40 5.016e-40 -5.01438e-40
-4.95601e-40 5.01055e-40 -5.07595e-40 -5.24854e-40 -4.96172e-40 -4.97088e-40 -5.05091e-40 -4.96107e-40
-5.10567e-40 -4.94059e-40 -4.97616e-40 -5.24356e-40 -4.97015e-40 -4.98575e-40 -5.6754e-40 -5.52703e-40
5.19569e-40 -5.41739e-40 -4.99106e-40 -5.1142e-40 -4.9908e-40 -5.09792e-40 -5.1844e-40 -4.90739e-40
4.98453e-40 5.35788e-40 4.92335e-40 -5.0431e-40 4.99243e-40 -4.9121e-40 4.9868e-40 5.02396e-40

encoder.2.bias f4 [32]
00000000: bec2 273d 3ab0 923c 6717 d13c 9e71 0500
00000010: ff72 0580 4d2d 6c3d 6f6b 0580 0156 633d
00000020: b87d 983c 467f 0500 610f 103d 955d 873c
00000030: 678d d9b7 0a5e 183d 40d4 0500 64b7 db3a
00000040: 7c70 6e3c 7ed2 0e3d c1d6 303d 9473 56b7
00000050: e9a3 003e bcdb 7b3d b4dc 0480 5c72 0580
00000060: 7252 0000 dc46 093c 1be3 8a3c 4577 863d
00000070: 108d 073c 01d2 0480 453b 1996 980c 543d
0.040957205 0.017906297 0.025523854 4.99936e-40 -5.0043e-40 0.05766039 -4.97717e-40 0.05550194
0.018614635 5.04835e-40 0.035170916 0.016524116 -2.5934261e-05 0.037199058 5.35318e-40 0.0016763029
0.014553186 0.03486871 0.043173555 -1.2782304e-05 0.12562527 0.061488852 -4.46515e-40 -5.00202e-40
2.9576e-41 0.008378711 0.016953995 0.065657176 0.008273378 -4.42677e-40 -1.2377944e-25 0.051769823

encoder.4.weight f4 [16, 32]
00000000: 6597 0580 04b2 0580 0c64 0580 9780 0580
00000010: f6ab 0600 ed9c 0580 3dd0 0500 a65f 0580
00000020: aa7d 0000 9204 0600 f476 0580 295a 0580
00000030: 9779 0680 147e 0580 af9b 0580 8592 0580
00000040: a45f 0500 e058 0500 0b84 0580 e52b 0680
00000050: eba0 0580 f8af 0080 d0d5 0580 26a4 0580
00000060: 7a81 0680 0f72 0580 5083 0580 2f8a 0580
00000070: 8c71 0580 a526 0680 4c91 0600 1198 0580
00000080: 3e4d 2b3e 6609 47bd 8a69 a23d 2683 0500
00000090: a0aa 0580 6099 f9bd 2369 0580 c6be 273e
000000a0: edda 633d f25f 0580 6362 573d b4dd 093e
000000b0: 0f4a 7fb8 67d4 b5bd 7795 0500 e6f6 1f3e
000000c0: b807 2d3d d3bd 433e ae65 bfbd ad28 2037
000000d0: b743 8c3e ecb6 f8bd 9768 0500 886c 0500
000000e0: 29a3 0500 00fd f43d 797d be3d b3a2 3f3e
000000f0: 9b37 453e 7d9b 0580 4652 0397 2f96 343e
00000100: 8632 243e 2077 cebc ba29 cf3d f6c1 0500
00000110: 05b9 0380 9c66 bcbd cd85 0580 1b3a 1d3e
00000120: 913d 973d 896d 0580 940f 9c3d 8fe3 203e
00000130: db6a 35b8 6916 71bd 8e6e 0580 0df2 313e
00000140: 8777 533d d11b 3e3e 22d9 83bd 99dc e436
00000150: 4dd5 713e 7714 b8bd ab86 0500 9c59 0500
00000160: 71ad 0500 816c fa3d 6bea f13d 3c0a 363e
00000170: 9596 4c3e a8bc 0500 c4ff dc96 5026 2e3e
00000180: 836d 84bc 544a 3f3e f905 353e 7f6a 0500
00000190: 4246 0600 e8b8 a23e 085a 0500 9d60 5abd
000001a0: 2b74 0a3e 465d 0500 3eac 523e 9553 ea3d
000001b0: e2fe 0339 6a30 823e e0a7 0580 1d65 913d
000001c0: 8d0e b63d 2541 6a3b b41d 823e 02d5 0cb8
000001d0: ce66 4abe d9e1 993e 0570 0500 9672 0580
000001e0: 6e60 0580 db03 0b3d c323 073e d315 82bd
000001f0: a972 373d 2d61 0580 8d2c 1a16 25b0 08bd
00000200: 376a e73d 5692 c9bc 480f 973d 8465 0580
00000210: e16d 0500 8ca0 8dbd 1ea5 0580 b9ae e03d
00000220: 94fd 543d 796f 0500 50f0 4a3d fa3f d83d
00000230: 14b3 26b8 f27f 46bd 1a5a 0580 f956 fc3d
00000240: e97a 063d 1125 083e 1a01 51bd b1ca a236
00000250: 7ea3 303e 0717 8abd 898a 0580 247f 0580
00000260: 5de4 0580 e8bc af3d cd88 953d 825c 033e
00000270: bf6a 0e3e 2ff0 0580 3dc1 d795 c4f8 f83d
00000280: 7cbb ac3c ac7a 7abc 0fc8 13bc 6f7e 0500
00000290: 487a 0580 9aca 18bd c9a2 0680 4473 b53c
000002a0: 5d8d 2ebb 67ac 0500 da5e a2bc 4dc4 1f3c
000002b0: 412c 86b7 c605 c9bc 8971 0500 b631 9e3c
000002c0: a057 a0ba a7f4 d73c 48e8 ccbc b819 cc36
000002d0: aa52 6d3d b981 0bbd bd7e 0580 139c 0500
000002e0: e672 0580 cd48 3e3c 3f0b cbb8 2257 ee3c
000002f0: 6ab6 c83c 906b 0500 c1bc 1715 cd89 cb3c
00000300: c096 0500 9678 0500 615e 0500 fcc3 0580
00000310: bf04 0600 7668 0500 e57c 0500 a84f 0600
00000320: b460 0580 5bb4 0580 0664 0580 3e58 0500
00000330: 817c 0500 1cef 0500 6a93 0500 0907 0680
00000340: f290 0580 3575 0500 d378 0600 1d83 0500
00000350: 3e88 0580 042a 0600 e05e 0580 0fd3 0600
00000360: 2a84 0500 5e59 0580 6280 0580 146a 0500
00000370: 1160 0580 79fb 0480 9763 0500 53e6 0580
00000380: b115 83bd 901f 9a3e 24ee 8f3e ad62 0580
00000390: 925e 0580 f404 043f fa5c 0580 b7b3 01be
000003a0: cc4a 313e 7c5b 0580 016e b53e 28d8 0f3e
000003b0: ef10 2239 ec48 d33e d87a 0580 4d57 033d
000003c0: 1b61 0a3e d73c 60bd b3ce cb3e cfc9 d6b7
000003d0: ab90 bdbe 0e8a f53e 4a76 0500 3197 0600
000003e0: 696f 0500 e314 b83c c7b7 653e 897e 39be
000003f0: e1e8 a83c 3260 0580 1cb0 6117 cc74 f4bd
-5.13488e-40 -5.23037e-40 -4.95068e-40 -5.05307e-40 6.12701e-40 -5.15472e-40 5.3388e-40 -4.9349e-40
4.508e-41 5.52652e-40 -5.0185e-40 -4.91521e-40 -5.94631e-40 -5.04406e-40 -5.15026e-40 -5.11739e-40
4.93487e-40 4.9106e-40 -5.06546e-40 -5.6676e-40 -5.16904e-40 -6.3126e-41 -5.35879e-40 -5.18063e-40
-5.9746e-40 -5.00094e-40 -5.06284e-40 -5.08748e-40 -4.9991e-40 -5.64876e-40 6.03136e-40 -5.13729e-40
0.16728684 -0.048592947 0.07930286 5.06225e-40 -5.20386e-40 -0.12187457 -4.96893e-40 0.16381368
0.055628706 -4.93596e-40 0.052584063 0.1346348 -6.086571e-05 -0.08878403 5.12795e-40 0.15621528
0.04224369 0.19115381 -0.09345566 9.546214e-06 0.27395412 -0.121442646 4.96697e-40 4.98111e-40
5.17708e-40 0.119623184 0.09301276 0.18714409 0.19259493 -5.14956e-40 -4.2432227e-25 0.17635415
0.16034898 -0.025203288 0.101153806 5.28758e-40 -3.41879e-40 -0.09199259 -5.07176e-40 0.15354197
0.0738479 -4.98471e-40 0.07620159 0.15711807 -4.325328e-05 -0.058859263 -4.98837e-40 0.17377491
0.051627662 0.18565299 -0.06437899 6.8206105e-06 0.23616524 -0.08988278 5.07487e-40 4.91323e-40
5.21397e-40 0.12227727 0.1181229 0.17777342 0.19979317 5.26855e-40 -3.5704328e-25 0.17006803
-0.0161655 0.18680698 0.1767806 4.97381e-40 5.76217e-40 0.31781697 4.91475e-40 -0.053314794
0.13520877 4.92638e-40 0.20573518 0.11441723 0.00012588085 0.25427562 -5.194e-40 0.07099364
0.08889494 0.0035744396 0.25413287 -3.357698e-05 -0.1976578 0.3005512 4.99363e-40 -5.00283e-40
-4.9377e-40 0.033939224 0.13197236 -0.06351819 0.044787083 -4.94038e-40 1.2454079e-25 -0.03337111
0.11299556 -0.024605911 0.073759615 -4.95594e-40 4.98595e-40 -0.069153875 -5.1841e-40 0.10970826
0.051999643 4.99166e-40 0.049545586 0.105590776 -3.9744264e-05 -0.048461862 -4.915e-40 0.12321276
0.03283206 0.1329539 -0.05102644 4.8515726e-06 0.17249867 -0.06742673 -5.08875e-40 -5.04787e-40
-5.41099e-40 0.08580953 0.07301483 0.12828258 0.13907908 -5.45339e-40 -8.7142685e-26 0.12156823
0.021085493 -0.015288036 -0.009019866 5.04533e-40 -5.03044e-40 -0.03730259 -6.09409e-40 0.02214969
-0.0026634552 5.21024e-40 -0.01982062 0.009751392 -1.5994652e-05 -0.024538886 4.99906e-40 0.019310813
-0.0012233146 0.026361777 -0.025013104 6.082668e-06 0.057940163 -0.03405926 -5.04643e-40 5.15166e-40
-5.00395e-40 0.011614037 -9.681889e-05 0.029094283 0.024501044 4.97764e-40 3.0643108e-26 0.024845982
5.13256e-40 5.02436e-40 4.93034e-40 -5.29483e-40 5.52716e-40 4.96651e-40 5.03981e-40 5.79588e-40
-4.93868e-40 -5.23877e-40 -4.95059e-40 4.90833e-40 5.03841e-40 5.44954e-40 5.1206e-40 -5.53537e-40
-5.11174e-40 5.01223e-40 5.94357e-40 5.06212e-40 -5.08052e-40 5.66085e-40 -4.93212e-40 6.26727e-40
5.06589e-40 -4.91236e-40 -5.05233e-40 4.97231e-40 -4.9364e-40 -4.57553e-40 4.94904e-40 -5.41802e-40
-0.06400622 0.30102205 0.28111374 -4.94576e-40 -4.93103e-40 0.5157006 -4.92531e-40 -0.12666212
0.17313689 -4.91996e-40 0.3543549 0.14047301 0.00015455832 0.41266572 -5.03246e-40 0.03206568
0.13513605 -0.05474552 0.39806136 -2.5604762e-05 -0.37024435 0.4795689 5.01612e-40 6.0525e-40
4.99144e-40 0.022470897 0.22433387 -0.18114676 0.020618858 -4.93686e-40 7.29237e-25 -0.1193634

encoder.4.bias f4 [16]
00000000: b4c0 0180 4c00 803d dfa3 b53c 1e2a 193d
00000010: c34c a83c b455 06bc feb4 0200 e35e a13d
00000020: 5e4e c5af cdc3 b33b 9fb9 843c 0b94 b89b
00000030: 6e42 8fbc 3197 9d39 a328 e3bc cb8b 503d
-1.60964e-40 0.062500566 0.022172866 0.03739368 0.020544415 -0.008199144 2.48599e-40 0.07879426
-3.5889774e-10 0.0054859878 0.016201792 -3.0535917e-22 -0.01748773 0.0003005802 -0.027729338 0.050914567

encoder.6.weight f4 [8, 16]
00000000: d27c 0500 15c4 ad3e 2087 b73e 65a7 fb3c
00000010: 2fd3 6a3e 2c09 173d 4285 0580 239f 4ebc
00000020: 3a97 28ae 23af 423e b595 c63e 343f 3619
00000030: e0f4 a23e 4803 b03e 336e d53e 679f e03d
00000040: a073 0500 38ab 57be e170 e2bd 6ffa ce3e
00000050: 7e25 93bd 3834 69bd a30c 0600 c398 383f
00000060: 84ea c7af 39b4 203d 5c5d 7b3d 5819 821a
00000070: 2861 f6bc 2334 ac3e f777 63bd a1da a93e
00000080: b6a8 0680 ba68 c6bd faa1 e0bd a1de 2f3d
00000090: 14c0 9abd 5503 8037 9d57 0580 e8ad eb3d
000000a0: 129d 8d2e 4a82 7ebd b7e9 ffbd c3be c298
000000b0: 5c9a edbd 1c21 c1bd 0d71 0dbe 0f76 56bc
000000c0: d676 0580 e761 a93e a43d a23e b3fa 1ebe
000000d0: b74f 583e fac0 783d d875 0500 275a acbe
000000e0: 435f ae2f f68d 403e 7211 9b3e 7cd6 709a
000000f0: 61c5 8b3e e782 133e 1943 a23e 24f6 e1ba
00000100: dc5c 0580 a2fa a6bd 39ee 7cbd 0da8 ab3e
00000110: e544 4ebd 7347 8abc 8c76 0500 c295 073f
00000120: d696 6baf 114e 313c 1bbb c53d 7dad 5b1a
00000130: 55d0 10bd 11b1 233e ab62 bb3d 1a5b 933e
00000140: 4773 0500 e445 0ebe e140 9cbd 26c5 9e3e
00000150: 3701 dcbd fd5d 2dbd 501a 0580 aafc 0a3f
00000160: 845a b2af 2955 52bc d259 7ebd 1e54 661a
00000170: 9b89 d0bc 882a f03d e030 b43d b81f 803e
00000180: a201 0680 6497 f4bb 30e1 ebbb 9f0b 44ba
00000190: 74c5 c9bb 318c 8aba cbe2 0500 0abf ef39
000001a0: 7d6a f12b 6da6 a9bb 6207 ecbb 8b15 a595
000001b0: 5b63 debb c3e4 ccbb 5734 ebbb 306b 80bb
000001c0: 8a76 0500 003f 893e 5a95 933e 375e 9d3e
000001d0: 8f82 6e3e baaf b53c 228a 0500 2ce9 993e
000001e0: ecb7 daae 9cf0 4f3e 50e3 ee3e daf2 fd99
000001f0: 360a b13e 9e02 153f e778 ce3e dcc4 033f
5.03955e-40 0.3393866 0.3584528 0.030719468 0.22932123 0.03687398 -5.06981e-40 -0.012611183
-3.8333094e-11 0.19012122 0.38786092 9.421943e-24 0.3182745 0.34377503 0.41685638 0.109679036
5.00656e-40 -0.21061409 -0.11056686 0.4042544 -0.071848854 -0.056934565 5.55546e-40 0.72108096
-3.6364523e-10 0.039234374 0.06136833 5.3807685e-23 -0.030075625 0.33633527 -0.05553433 0.33174613
-6.11535e-40 -0.09687944 -0.109683946 0.042936925 -0.07556167 1.526034e-05 -4.90607e-40 0.11507779
6.439839e-11 -0.062135972 -0.124957494 -5.0340445e-24 -0.11601707 -0.09430143 -0.13812657 -0.013089671
-5.01808e-40 0.33082506 0.31687653 -0.15525322 0.21124159 0.06073091 5.01452e-40 -0.3366253
3.1718103e-10 0.18804154 0.30286747 -4.9804096e-23 0.27299026 0.14405404 0.31691816 -0.0017239493
-4.92489e-40 -0.08153273 -0.061750624 0.3352665 -0.05035867 -0.016879773 5.01704e-40 0.5296289
-2.1426713e-10 0.010821835 0.09654828 4.542828e-23 -0.03535493 0.15985514 0.09149679 0.28780442
5.00531e-40 -0.13893849 -0.07629562 0.31009787 -0.10742419 -0.042325962 -4.68617e-40 0.54291785
-3.2442327e-10 -0.012837687 -0.062097378 4.7630835e-23 -0.02545624 0.11726862 0.08798385 0.250242
-5.51599e-40 -0.007464336 -0.0071984753 -0.00074785383 -0.0061575714 -0.0010570345 5.40535e-40 0.00045727968
1.7153636e-12 -0.00517731 -0.0072030285 -6.667696e-26 -0.0067867464 -0.0062528565 -0.0071778703 -0.0039190277
5.01701e-40 0.26805878 0.28824884 0.30735943 0.23291992 0.02217852 5.0873e-40 0.3006071
-9.946163e-11 0.20306629 0.466578 -2.6257674e-23 0.34578103 0.5820712 0.40326616 0.5147226

encoder.6.bias f4 [8]
00000000: 2e4b 23be d6e1 1aba 7538 a13e 4da8 353e
00000010: 4668 473e 6ce1 21be 9b73 24bb bbd9 ed3d
-0.15946648 -0.0005908286 0.31488386 0.17739983 0.19473371 -0.15808648 -0.002509332 0.116137944

encoder.8.weight f4 [3, 8]
00000000: a433 e63b 8cf3 6d3e 0b59 98be 1848 dcbe
00000010: 0b9a 0dbd 72e2 ac3e fe34 02bb c6c7 2abe
00000020: 4b5f 11bf 8c3f 2bbf ba80 563d 532d 2bbe
00000030: 5757 f5be fe91 c7be 3053 00bb a025 4abf
00000040: 6761 00bf 15b1 273f 6379 a83e 4883 15bf
00000050: f269 db3e fe2a 003f b7ab d5ba 8809 ffbd
0.007025199 0.23237437 -0.29755434 -0.43023753 -0.034570735 0.33766514 -0.0019868012 -0.1667777
-0.5678603 -0.6689384 0.052368857 -0.16716509 -0.47918198 -0.3897857 -0.0019580834 -0.7896366
-0.50148624 0.6550458 0.3290511 -0.58403444 0.42854267 0.500656 -0.0016301785 -0.1245299

encoder.8.bias f4 [3]
00000000: 4d45 4dbf c208 1b3d 224e 853e
-0.8018387 0.03785015 0.26036173

decoder.0.weight f4 [8, 3]
00000000: d06a febe b886 bebd a741 263f b920 053f
00000010: 552a 04bf 1745 0c3f caed 0fbe 7ab0 febe
00000020: d0a6 7c3e 0085 893e bed1 07bf a696 1a3f
00000030: fe77 f2be 11f0 08bf dd52 71bf 923e 0eb2
00000040: 7e84 b332 6e36 3cb3 eee4 28be 1349 a1be
00000050: be85 29be b6d7 30be 7977 b13d de8f f33e
-0.49690866 -0.09303039 0.6494393 0.52003056 -0.51627094 0.5479292 -0.14055553 -0.49744016
0.24673009 0.26859283 -0.53054416 0.6038612 -0.47357172 -0.5349131 -0.94267064 -8.279715e-09
2.0898593e-08 -4.3821665e-08 -0.1649358 -0.31501064 -0.16554925 -0.17269787 0.08665366 0.475707

decoder.0.bias f4 [8]
00000000: 50d9 993f ae2a 6ebf e985 ee3e 6dca 38be
00000010: ff87 fdbd 7a31 5eb0 7cba 4c3f 7f3a 923e
1.2019444 -0.93033874 0.4658654 -0.1804597 -0.12379455 -8.083344e-10 0.7997205 0.28560254

decoder.2.weight f4 [16, 8]
00000000: 449f 413f 486a e33e 3dfa ca3e 917c 073f
00000010: 2b4c 9abe aea4 0eb2 96dd 2e3e 772d 623e
00000020: b149 ad3e f814 d9bd 4f23 1a3d 9db0 973c
00000030: 0ccd a0be 4860 0580 5159 3fbc adc5 2c3e
00000040: 30ec 76be 22ab 96bc a66a 353e caa0 463c
00000050: 7ea3 1d3f 01f4 8a31 917c a03e 936f f2bd
00000060: b4e2 d43e 2a06 8bbe 8ad3 ac3d 2e1b aabd
00000070: d7a0 87bc 60f9 30b1 5e19 d43e 51a5 2e3e
00000080: 6316 d83d 6c61 8fbd 4c10 5ebb 4519 e0bc
00000090: 649e b3bd 8562 0500 64cb 6c3b 980b 553d
000000a0: 385b 25be 8353 d33e 497c 963d 19a3 603e
000000b0: bb8c e9bc 9c27 57b0 e387 fd3c 0c65 c63b
000000c0: 42ca d8bc a8ba dd3d f4c2 c43c 4953 863d
000000d0: ed2b bfbd a957 0500 be65 8cbd c14a c13b
000000e0: 74c6 393f 7104 eebe 416e 9a3e cdd2 5ebd
000000f0: a877 a4be 9618 03b2 769b dc3e f817 a83e
00000100: 3f39 303e 7d69 ebbd fe37 b2bb 0ba8 35bd
00000110: b603 13be 0e5b 0500 154a be3b 7fa2 ae3d
00000120: f093 0500 ee68 0500 4a75 0580 e87e 0580
00000130: 2659 0580 4059 0600 e563 0580 39bb 0680
00000140: df5c 61bc 2fa9 f33e 5a31 af3e 7b1c fc3e
00000150: b1b6 a63e ef9e cbb0 c270 993e 5058 15bd
00000160: 34b1 0580 b25c 0580 725e 0580 e571 0580
00000170: b96e 0580 f7e2 0500 c48f 0580 ade5 0500
00000180: 9fe6 49be 29dd 143f c223 2a3d c58e 6e3e
00000190: fbd2 23bc 8165 a5b0 ecb0 733d af87 a13d
000001a0: 0eaf 4a3d 6235 febe be0a 6b3e 9b0b 4bbe
000001b0: d510 263f 3dba 9431 522e ec3e fd3f 37bd
000001c0: 0367 a43e 3be4 80bd 03e3 7f3d 882c fe3c
000001d0: 6860 58be e65b 0580 c8ae 053c b6c6 cb3d
000001e0: dd6b 0580 a75d 0580 6c63 0500 5f5a 0500
000001f0: b159 0500 0fd8 0580 c25a 0580 7b6d 0580
0.75633645 0.44417024 0.39644042 0.5292445 -0.30136237 -8.302932e-09 0.17076716 0.22087656
0.33845285 -0.105997026 0.03763133 0.018516833 -0.31406438 -4.93717e-40 -0.01167901 0.16872282
-0.24113536 -0.01839215 0.17716464 0.012123296 0.61577594 4.0440686e-09 0.31345037 -0.11837687
0.4157921 -0.2715314 0.084387854 -0.08305965 -0.016556187 -2.5753124e-09 0.41425604 0.1705525
0.10551145 -0.070010036 -0.0033884225 -0.0273558 -0.08770445 4.9452e-40 0.0036131972 0.05201301
-0.16148078 0.41274652 0.07347924 0.21937217 -0.028509488 -7.827283e-10 0.030948585 0.006054526
-0.026463632 0.108266175 0.024018742 0.06558854 -0.0933455 4.90624e-40 -0.06855343 0.005898804
0.7256844 -0.46487764 0.30162242 -0.054400254 -0.3212254 -7.630794e-09 0.43087357 0.32830787
0.17209338 -0.1149473 -0.0054388037 -0.04434971 -0.14356884 4.91842e-40 0.005807171 0.085270874
5.12247e-40 4.96819e-40 -5.01253e-40 -5.04703e-40 -4.91158e-40 5.8303e-40 -4.95013e-40 -6.18176e-40
-0.013755052 0.47590014 0.3421734 0.4924048 0.32561257 -1.4815366e-09 0.2996884 -0.036461174
-5.22746e-40 -4.9243e-40 -4.93058e-40 -5.00035e-40 -4.98897e-40 5.40597e-40 -5.10751e-40 5.4157e-40
-0.19716881 0.58149964 0.041538008 0.2329665 -0.009999032 -1.2034179e-09 0.059494898 0.07887208
0.04948335 -0.49650103 0.22953317 -0.19828646 0.64869434 4.3285397e-09 0.4612909 -0.04473876
0.32109842 -0.062935315 0.062472355 0.031027094 -0.21130526 -4.92144e-40 0.008159347 0.099500105
-4.97872e-40 -4.92774e-40 4.94843e-40 4.91597e-40 4.91353e-40 -5.36685e-40 -4.91735e-40 -4.98452e-40

decoder.2.bias f4 [16]
00000000: 7b4e 863e f883 da3d 010a 08bd e614 0e3f
00000010: 7229 323d c5db 98be 8ae3 d3bc bdbd 6c3f
00000020: 5a17 923d 20aa 0580 58d3 e8bd 40e7 0580
00000030: cfef cabe 76b0 823e 6fe7 c63d 69a4 0680
0.2623175 0.10669702 -0.033212665 0.5550064 0.043496557 -0.2985517 -0.025865335 0.9247702
0.0713336 -5.20207e-40 -0.113684356 -5.42134e-40 -0.39636084 0.25525254 0.09712111 -6.09992e-40

decoder.4.weight f4 [32, 16]
00000000: 991d 933b 5011 fb3b 0d63 33bc 43d5 d83b
00000010: cd6f 2a3b 3160 abbb d71e 1fb8 e9ca 8a3c
00000020: 5acb 8b3b 85ac 0580 6883 79bc 6754 0680
00000030: de13 d9bb 1e26 9dbb cf2d b43b ddb6 0680
00000040: 985b 8c3e e802 aa3d a552 97bd 7eed 153e
00000050: e232 b83c 95d4 a8bc fade 333b 302b 963e
00000060: 89e0 163d 87fb 0500 a4b9 8f3d 12eb 0580
00000070: 3530 ffbc 5433 cebc 199f 8e3d f475 0580
00000080: dfa5 2c3e aa22 073e 3782 5bbd f5bb 753e
00000090: 7e0f 3d3d 695d 04be 6274 b3bc 66fe fe3e
000000a0: 049b 9a3d 7460 0580 567c 2cbd f46b 0580
000000b0: c370 2dbe 6327 843d 99b0 dc3d f057 0580
000000c0: f476 32be b3d5 f638 2c4b a33d 62cb 8fbe
000000d0: bf61 0500 86fa 4b3e 3c76 8c3c efc9 00bf
000000e0: 1b64 0500 1287 0580 78e5 c13d 74e6 0500
000000f0: 6f1c a83e 8066 08be 198a c33b 87e0 0200
00000100: 8abc 833e 4621 a73d aee9 80bd bda6 0a3e
00000110: b1b6 b83c 9d41 c5bc fc48 e63a 3bae 913e
00000120: d953 173d 7670 0580 eb97 303d 12f6 0580
00000130: 35bd 07bd 37c3 54bc 38e7 883d e3a2 0580
00000140: 4d68 f83b 8e15 bb3d 9c29 803c a8d9 933e
00000150: 0c58 203d b6a9 37be 6303 10bd e347 db3e
00000160: 9a0c 833d 046c 0500 a498 d33c d785 0580
00000170: a565 75be 6936 723e d25d 9e3d 8c81 0580
00000180: 2d2e 873e 2e1e 50bd ef51 0a3a 7132 07be
00000190: 2561 09bd 43fa 773e b808 243d 3f08 75be
000001a0: b4ec 5fbd 7972 0580 e6fc 943e 7f5d 0580
000001b0: 70ef a63e 9e3f 2abe b1fc e2bc 3178 0580
000001c0: 6932 5b3e 5a43 fd3d b41e 20bd cdab 663e
000001d0: 75ec 2c3d f61a 0cbe 46ce 95bc 1a63 e73e
000001e0: a669 8d3d b75b 0580 abf1 5abd fd62 0580
000001f0: 378e 44be 3b7a 1a3d 26b3 cf3d 8a5c 0580
00000200: bf3d 25be b404 533c 4b3b c13e 3831 883e
00000210: 2cee 5a3c 2756 08be 66e5 39bd c1d1 7e3e
00000220: f106 b23c 343d 0600 9d94 683d f0b4 0580
00000230: e4a2 39be b74a 0f3f 70d8 b53c 6517 0080
00000240: ff7b e23e 83e1 e33d 22ea babd 1bc3 213e
00000250: eca0 d33c b795 e03c 69c2 543c afa1 ba3e
00000260: 5995 2d3d 6d9f 0580 2b1a 323e 2d42 0680
00000270: 1113 033d fa26 bbbd c23c b93d 0fa7 0580
00000280: 14da 5e3e ea27 88bd 22a6 223e bca3 c9bd
00000290: 905b f9bc ec70 263e b24d 453c 1767 62be
000002a0: 7a3e 4bbd a565 0500 ba3a 8f3e 2974 0500
000002b0: 57ec 533e ac93 a13b 9e83 2dbd 547a 0580
000002c0: b4aa 9d3e 902f 4b3e 489a 7fbd 547d bc3e
000002d0: c34d 873d c0e3 35be 75dd c4bc ff0e 293f
000002e0: 595d dd3d 056d 0500 87af c3bd bb60 0580
000002f0: ab7b 5dbe 2f3f 033d 0c85 253e 7f6e 0580
00000300: e442 ba3e d202 d13d ed58 fcbc 4c56 173e
00000310: 1049 da3c 79eb acbb e658 bb3b 64bf ad3e
00000320: f319 333d 996f 0580 4beb 873d 68ac 0580
00000330: 79cc bfbb d213 84bd 442b a83d 39a0 0580
00000340: 3434 1b3e 495c ad3d 9c4e 34bd 5bda 2b3e
00000350: 194c e53c eaf1 9fbd c46c 09bc e5a1 9f3e
00000360: 0e9f 3b3d c8b4 0580 339d 8dbc f47f 0580
00000370: bb4c d1bd 5d3c 1c3c 69a4 8e3d 9067 0500
00000380: 488e 59bd 05db 83bd 5534 ae3e b2ef 023d
00000390: 9c4a 9dbc 2ab2 da3c 0f79 d0bc 416b f4bd
000003a0: 4346 01bd f2c1 0500 1b01 863e ce87 0500
000003b0: a7fb 223d ca65 9f3e 24a9 19bd 6251 0680
000003c0: 93be 62bc 0cf4 bdba 8d9a 5a3c ff62 efbd
000003d0: 4167 0580 0d9a ad3d 2d64 243c cbe1 58be
000003e0: f963 0580 60a4 0580 847c a03c 1881 0500
000003f0: 0366 153e a7a4 68bd af19 86bc 7b69 0580
0.0044896123 0.007661976 -0.0109489085 0.0066172197 0.002600658 -0.005229973 -3.7937276e-05 0.016942458
0.0042661848 -5.21066e-40 -0.015229084 -5.81291e-40 -0.006624683 -0.0047958037 0.005498625 -6.16612e-40
0.2741363 0.083013356 -0.0738881 0.14641377 0.0224852 -0.02060918 0.0027446137 0.29329824
0.036835227 5.49408e-40 0.0701783 -5.43505e-40 -0.031150917 -0.02517096 0.06963939 -5.01491e-40
0.1686015 0.13196817 -0.05359098 0.23997481 0.046157353 -0.12926258 -0.021906082 0.49803466
0.07549098 -4.93778e-40 -0.042110763 -4.97904e-40 -0.16937546 0.06452825 0.10775871 -4.90724e-40
-0.1742819 0.00011769999 0.07973322 -0.28084856 4.94242e-40 0.19919786 0.017146222 -0.50308126
4.95089e-40 -5.07632e-40 0.09467596 5.41848e-40 0.32834193 -0.1332035 0.0059673903 2.64216e-40
0.2572978 0.08160643 -0.06294571 0.13540168 0.022548052 -0.024079138 0.0017569358 0.2845324
0.036945198 -4.99521e-40 0.04311363 -5.47451e-40 -0.033139426 -0.012985996 0.066847265 -5.1761e-40
0.007580793 0.091349706 0.01564484 0.28876996 0.039146468 -0.17935833 -0.03515948 0.42828283
0.06398888 4.97926e-40 0.02582962 -5.0719e-40 -0.23964556 0.23653568 0.077327386 -5.0565e-40
0.26402417 -0.05081003 0.0005276491 -0.13202836 -0.03353991 0.24216561 0.040047377 -0.23928927
-0.054669097 -5.00243e-40 0.29099196 -4.92718e-40 0.3260455 -0.1662583 -0.027708383 -5.02294e-40
0.21405949 0.12366362 -0.03909178 0.22526474 0.04221769 -0.1368216 -0.018286835 0.45192796
0.069049165 -4.92079e-40 -0.05345313 -4.94688e-40 -0.19194876 0.037714224 0.10141592 -4.92374e-40
-0.16136836 0.012879539 0.3774055 0.2660005 0.013362449 -0.13314115 -0.045384787 0.24884702
0.021731826 5.72969e-40 0.056782354 -5.24086e-40 -0.18128544 0.5597338 0.022197932 -8.392e-42
0.44235227 0.11126997 -0.091266885 0.15797083 0.02583357 0.02741514 0.012985804 0.3645148
0.042378757 -5.16369e-40 0.17392795 -5.74752e-40 0.032000605 -0.091382936 0.09044792 -5.19107e-40
0.21762878 -0.06648238 0.15883687 -0.09845683 -0.030439168 0.16254014 0.01204245 -0.22109638
-0.04962013 4.9564e-40 0.27974492 5.00848e-40 0.20695625 0.004930934 -0.042361848 -5.0306e-40
0.307943 0.19842362 -0.062402993 0.36814368 0.06606629 -0.17762661 -0.02403138 0.6603851
0.1080882 4.98286e-40 -0.095549636 -4.93878e-40 -0.21629207 0.03204268 0.16164035 -4.98816e-40
0.36379158 0.10205616 -0.030804122 0.14779013 0.026646167 -0.005277094 0.0057173846 0.33935082
0.04372592 -4.99211e-40 0.066366754 -5.21025e-40 -0.0058532325 -0.06449093 0.08211377 -5.16655e-40
0.15156633 0.084648676 -0.04402028 0.16782515 0.027990388 -0.07809813 -0.008387748 0.31178203
0.045805983 -5.2403e-40 -0.017286872 -5.05078e-40 -0.10219713 0.009535876 0.069649525 4.96329e-40
-0.053114206 -0.06438259 0.340243 0.031966873 -0.019200616 0.026696283 -0.02544835 -0.119345196
-0.031561147 5.28752e-40 0.26172718 5.07895e-40 0.039790776 0.31132346 -0.03751482 -5.80208e-40
-0.013839382 -0.0014492287 0.013342512 -0.11688804 -4.96218e-40 0.084766485 0.010033649 -0.21179883
-4.95041e-40 -5.18144e-40 0.019590624 5.05488e-40 0.14589696 -0.05679765 -0.016369669 -4.97017e-40

decoder.4.bias f4 [32]
00000000: b85b 3b3b a06d a83d 883a 253e fdea ffbd
00000010: 4d4a a43d bbab 143e 62f7 b5bd 070a 0f3e
00000020: 418d ce3d f146 cb3d 7099 88bd a3fd 753e
00000030: dd41 c43d a7fb c03d aa12 87bc e10d 6cbd
00000040: f01a c7bd 7f4d 283d cf10 6539 6c2e e63c
00000050: c82b 933c 7b94 2d3e e83c 583d 5283 0580
00000060: e1ab bdbd 9160 1a13 0747 3f3e 2d79 adbd
00000070: c12c a13d cabe ed3d df37 88bb 63f5 87bd
0.0028588604 0.08224034 0.16135609 -0.12495992 0.08021984 0.14518635 -0.08885075 0.13968669
0.10085536 0.099256404 -0.06669891 0.24022536 0.09582875 0.09422999 -0.016488392 -0.057630423
-0.09721935 0.04108953 0.00021845404 0.028098308 0.017965212 0.16951172 0.05279246 -5.06286e-40
-0.09261299 1.9485144e-27 0.18679439 -0.08470378 0.07869864 0.11608656 -0.004157051 -0.06638601

decoder.6.weight f4 [64, 32]
00000000: 8f7c 303b f44b 2e3d 81e2 743d df7e 3bbd
00000010: 8e79 2b3d 05ca 4f3d 4018 cabc 4132 733d
00000020: 6515 de3c 9484 8b3d 32d8 d1bc a4b4 b93d
00000030: 2c77 613d bb28 1b3d c125 aabc 152d 98bc
00000040: 316f e1bc 5487 da3b 6752 5639 1c2e e13c
00000050: 4486 71bc 8a8c 813d 3aab c43c 751f 0680
00000060: 139e d5bc 4c1b 4591 a633 b63d d070 7ebc
00000070: f000 b83c d290 833d 89fd b1bc cfcd d3bc
00000080: 47d9 a8ba c32b b93d 20b9 953d 9fee 073d
00000090: b558 ab3d 7d4b c8bc c575 663d acd5 9c3d
000000a0: 1b8c 5fbe fd67 0d3e 5ac5 12bd 1688 ff3d
000000b0: d91f e23d 9171 813d e197 41be 038c 81ba
000000c0: 2b57 813d e3fc 46be ec43 b1b8 f1ad dd3d
000000d0: 4fa0 80be bee1 a23d edbd 503d 98c5 0600
000000e0: bc1c 783d c86f ff11 e2c8 0b3e 8880 913d
000000f0: db37 5dbe 73f8 ec3d c1b3 80be 4d99 3cbd
00000100: dabd 1d04 56e2 6788 4f59 3107 5c6d 2002
00000110: ec90 2588 bccb 3d07 7dc4 f388 fe2c a386
00000120: 8bfe 8988 b32e 1889 9b48 0d89 91c8 c387
00000130: 98dc c888 6ade 9d07 dff1 fc88 0566 9804
00000140: f85b 0989 172a 5c88 3c89 4102 8c3d 0e89
00000150: bba9 e588 022a bb06 0969 1d07 6bc3 0600
00000160: 20b4 0689 be60 0580 743d cf88 31c2 0c89
00000170: 0785 9688 1eb5 c088 8ee8 1289 28ba fb88
00000180: f4bc 2e35 5c32 4236 41d4 2037 dd7a 8a28
00000190: 0a2c 5536 9838 2337 d9cd 4eb7 bf72 1637
000001a0: 5a65 9136 ea08 1735 e0f3 40b7 65ea 5637
000001b0: b9e1 1f36 f390 c436 ee89 eab6 0695 cfa7
000001c0: 5fa7 65b7 2dfa b533 8767 5c33 ec0e 8eb6
000001d0: 398f 7fb6 f313 2637 e725 3936 37f7 0500
000001e0: 3759 62b7 72b7 9b0a bb9a 0037 17ef 5fb7
000001f0: 016c 2736 5de7 8736 a8bb e9b6 0348 35b7
00000200: 9cf0 0580 f16a c6bd feb5 64bd 7e56 0680
00000210: c0fa b2bd bef1 95bb 9407 f6bd 142c 75bd
00000220: 5950 843d 69ea 28be ddc1 aabd cc3b bebd
00000230: 4143 febd ef41 49bd d34a 153c 2286 0680
00000240: 6824 07be caf2 413d f2a4 0600 ba57 1abe
00000250: 28b7 4b3d 490a 77bd 396d 49bd 80ca 0600
00000260: e5a4 04be a81e 7392 3d59 08be 4bbb 0bbe
00000270: 4520 603d f213 fdbd e229 f73c b5a7 8ebd
00000280: 51d5 0680 acb3 0cbe ace3 99bd 8bb4 1fbd
00000290: 296a febd 6297 343d db47 21be 1dd4 adbd
000002a0: bead 893e 8475 6dbe da26 6fbd 2393 0bbe
000002b0: 088d 33be 8949 94bd 40b8 173e 280b 9bbc
000002c0: 794e 31be a850 4c3e de65 0580 97ff 55be
000002d0: bcd6 763e 657d a9bd 0ab8 90bd c0a3 0600
000002e0: a7ac 2dbe 0581 e012 036d 43be 3b9a 38be
000002f0: 0fca 6d3e eda5 33be 0115 603e 841c 1fbd
00000300: 516f 893b 0d34 723d 89ef ba3d aa47 97bd
00000310: f8a0 713d 795f 993d 1c79 3fbd 56b6 ae3d
00000320: 0215 133d 1b03 e03d df87 9bbc 3a6c 0a3e
00000330: a058 933d b8c4 6c3d 876d 1bbd 353e f4bc
00000340: 8099 4fbd 5680 173c 23bf a539 30d8 803d
00000350: 1d31 66bc e02f c53d 8e38 173d 17a9 0600
00000360: 9e7c 30bd 1085 ac93 dddb 093e bb6f 01bd
00000370: 5782 cf3c 1888 c23d a2df dbbc c712 20bd
00000380: a154 df37 4a9e 8539 0a18 103a 1b5a 0580
00000390: d51f 8739 47f1 f139 3f94 03ba df95 083a
000003a0: 43da d338 6382 6e39 2499 02ba c0f1 493a
000003b0: 8d21 8a39 da69 b739 fb4e ceb9 c6af cb82
000003c0: b7e6 10ba 21f4 c7b8 40ef 0336 667f 1cb8
000003d0: 613c 94b9 702d 163a b232 4539 5b94 0500
000003e0: 3165 0fba 7107 380e e531 103a ddda 08ba
000003f0: 5aac a737 8d20 b739 e78e d7b9 bec9 00ba
0.0026929711 0.042552903 0.059786323 -0.04577529 0.04186397 0.05072977 -0.024669766 0.059374098
0.027109811 0.06812397 -0.025615785 0.090676576 0.05504529 0.03788064 -0.020769956 -0.018576184
-0.02751884 0.0066689644 0.00020439328 0.027487807 -0.014741484 0.06325634 0.024007428 -5.62298e-40
-0.026076352 -1.5548971e-28 0.0889657 -0.015529826 0.022461385 0.06424107 -0.02172734 -0.025854973
-0.0012882137 0.0904155 0.073107004 0.03318655 0.08366529 -0.024450058 0.056264658 0.07657942
-0.2183079 0.138092 -0.03583274 0.12477128 0.11041231 0.06320489 -0.18905593 -0.0009883646
0.06315454 -0.19432406 -8.452669e-05 0.10824192 -0.25122306 0.07953213 0.050962377 6.21896e-40
0.06057428 4.0300797e-28 0.1365085 0.071045935 -0.21603338 0.115708254 -0.2513714 -0.046044637
1.8542437e-36 -6.978009e-34 1.3342245e-34 1.1786328e-37 -4.9823236e-34 1.4278652e-34 -1.4671225e-33 -6.1379895e-35
-8.30523e-34 -1.8318292e-33 -1.7006397e-33 -2.9458221e-34 -1.20889235e-33 2.3753458e-34 -1.5223562e-33 3.582872e-36
-1.6534019e-33 -6.625332e-34 1.4218785e-37 -1.7121567e-33 -1.382234e-33 7.0403307e-35 1.1842234e-34 6.21116e-40
-1.6214358e-33 -4.93882e-40 -1.2472807e-33 -1.6943195e-33 -9.059071e-34 -1.159816e-33 -1.7683457e-33 -1.5150278e-33
6.5095014e-07 2.8937566e-06 9.586162e-06 1.5374361e-14 3.1765107e-06 9.728734e-06 -1.23264845e-05 8.967413e-06
4.3331356e-06 5.6264855e-07 -1.1500873e-05 1.2809968e-05 2.3824234e-06 5.8581295e-06 -6.9898006e-06 -5.7615613e-15
-1.3688433e-05 8.473976e-08 5.13169e-08 -4.233667e-06 -3.8081328e-06 9.899016e-06 2.758921e-06 5.47861e-40
-1.3491422e-05 1.4994962e-32 7.6654205e-06 -1.3347503e-05 2.4947806e-06 4.0502478e-06 -6.965787e-06 -1.0805207e-05
-5.45492e-40 -0.09688366 -0.055837624 -5.8204e-40 -0.08739233 -0.004575937 -0.12013164 -0.05985649
0.064606376 -0.1649567 -0.08337758 -0.09288749 -0.124151714 -0.049135145 0.009112078 -5.99131e-40
-0.13197482 0.047350682 6.10184e-40 -0.15072528 0.04973522 -0.060312543 -0.04917643 6.23656e-40
-0.12953527 -7.6715067e-28 -0.13315292 -0.13645665 0.054718275 -0.1235732 0.030171338 -0.06965581
-6.27536e-40 -0.13740414 -0.07514128 -0.03899054 -0.12422592 0.044089682 -0.15750067 -0.08487723
0.26890367 -0.2318936 -0.05838666 -0.13630347 -0.17534268 -0.07240588 0.1481638 -0.018926218
-0.17315091 0.19952643 -4.9572e-40 -0.20898281 0.24105352 -0.0827587 -0.07066353 6.09755e-40
-0.16960393 1.4168193e-27 -0.19084553 -0.18027584 0.2322161 -0.17543764 0.21883012 -0.038845554
0.004194178 0.05913167 0.09127719 -0.07386716 0.058991402 0.07488913 -0.04674636 0.085308716
0.035908706 0.10938092 -0.018985687 0.13517848 0.07194638 0.057804793 -0.03794625 -0.029814819
-0.0506835 0.009246906 0.0003161366 0.062912345 -0.014049795 0.09628272 0.03691917 6.11671e-40
-0.043087594 -4.3550114e-27 0.13462777 -0.031600695 0.025330706 0.09498614 -0.026840035 -0.039080407
2.662308e-05 0.0002548567 0.0005496746 -4.91501e-40 0.00025772923 0.00046146868 -0.0005019344 0.0005210321
0.000101019185 0.00022746022 -0.0004981926 0.0007703565 0.00026346408 0.00034983346 -0.00039350227 -2.9929058e-37
-0.0005527543 -9.534532e-05 1.9659783e-06 -3.7311947e-05 -0.00028273746 0.00057288166 0.0001880627 5.12397e-40
-0.0005470096 2.2683334e-30 0.0005500599 -0.00052206015 1.9988209e-05 0.00034928732 -0.00041114466 -0.00049128744

decoder.6.bias f4 [64]
00000000: 9dad 853c 56c2 263c c1ca 7708 501d 4836
00000010: 66df 84bc db2b 76bc 8766 d33c b403 0a39
00000020: 0595 213d 2f2b 853c 4119 bf3c c48c 3f32
00000030: 45b2 813c c6b8 d73c 2a71 393c a7ae ddbc
00000040: 632f e33c 3999 f43c dbd3 25bc 0b98 d6bb
00000050: 2eee c2bc 2075 343d e499 1c3c 5236 bba4
00000060: ffab 1f3c c011 213d a143 9db3 4fb7 9dbc
00000070: d79d 2f3d 9ee0 af3c fb82 0d3d 68ec 05ba
00000080: 8436 213c 1f18 873c c8ba 0b3d 35a9 093d
00000090: cd01 9d3c 517b 9f3c 27d1 733c e20e 443d
000000a0: c898 b8bd 3c53 ac3c 302f ddb9 60ff e7bb
000000b0: 6b0c c13c 1a55 cb39 040f cc3c cbbb 033d
000000c0: 45ad 4d3c 2cd3 df3c fe95 fb3c 78c8 643d
000000d0: 0c26 0dbc cfa8 6e3d 2baa fa3c a9f1 8d3c
000000e0: 1fed 07bc 1879 bea5 1762 6d38 0eb4 963b
000000f0: 6941 b23c e48a 903c 0042 3337 ca1d 0fba
0.016318137 0.010178169 7.4567195e-34 2.9819385e-06 -0.016219806 -0.015025104 0.025805725 0.00013162085
0.039448757 0.016255943 0.023327472 1.114967e-08 0.015832076 0.026333224 0.011318484 -0.02706082
0.027732557 0.029858219 -0.010121311 -0.0065488867 -0.023795214 0.04405701 0.009558175 -8.1190345e-17
0.009745597 0.03932357 -7.323184e-08 -0.019252447 0.042875137 0.02146941 0.03454874 -0.00051087746
0.009839658 0.016490994 0.034113675 0.033608634 0.019165898 0.019467982 0.014881409 0.047865756
-0.09013516 0.021035783 -0.00042187562 -0.0070800036 0.023565492 0.00038782583 0.024909504 0.032161515
0.012553518 0.027322374 0.03071117 0.055855244 -0.008615028 0.058266457 0.03059872 0.017327147
-0.00829628 -3.3041802e-16 5.6596557e-05 0.004599101 0.021759706 0.017644353 1.0684598e-05 -0.0005459456
