spectral_model.pth (torch, 114242 bytes, 20 tensors)

encoder.0.weight f4 [64, 164]
0	0xb0de1d18	-1.6160895e-09
1	0xb08c7807	-1.0220454e-09
2	0xaf9b978a	-2.830201e-10
3	0xb13d1062	-2.7512432e-09
4	0xb19f25b7	-4.6317967e-09
5	0xb22ff095	-1.0241043e-08
6	0xb2aff614	-2.0484585e-08
7	0xb2cea51f	-2.4056645e-08
8	0xb342de55	-4.5371355e-08
9	0xb37a8309	-5.8326837e-08
10	0xb391365d	-6.761977e-08
11	0xb39f62d3	-7.4219905e-08
12	0xb3aa3fe7	-7.927866e-08
13	0xb3b3766b	-8.356877e-08
14	0xb3b86e15	-8.5881915e-08
15	0xb3ba5ac9	-8.677814e-08
16	0xb3bb3dbb	-8.719095e-08
17	0xb3c3dcfe	-9.120593e-08
18	0xb3c1dd6f	-9.0275414e-08
19	0xb3c97814	-9.381634e-08
20	0xb3ca1d92	-9.411737e-08
21	0xb3d0add3	-9.717373e-08
22	0xb3d5a2b4	-9.948181e-08
23	0xb3d5c2ff	-9.954055e-08
24	0xb3dd5188	-1.0305945e-07
25	0xb3e25bbb	-1.0540631e-07
26	0xb3e9c983	-1.0886563e-07
27	0xb3ee0b4f	-1.1084796e-07
28	0xb3ed0508	-1.1037088e-07
29	0xb3eeb43b	-1.11155224e-07
30	0xb3ef1506	-1.1133129e-07
31	0xb3ed9777	-1.1063724e-07
32	0xb3eeecf0	-1.1125837e-07
33	0xb3eefd15	-1.1128774e-07
34	0xb3ec4976	-1.1002969e-07
35	0xb3eeb161	-1.1115004e-07
36	0xb3f38328	-1.13394265e-07
37	0xb3eb966f	-1.0970404e-07
38	0xb3f4e9b4	-1.1404646e-07
39	0xb3eb805d	-1.09663894e-07
40	0xb3f62097	-1.1461196e-07
41	0xb3f8efdb	-1.15920294e-07
42	0xb3f8395e	-1.1558835e-07
43	0xb3fabfed	-1.1676443e-07
44	0xb3f67815	-1.14771105e-07
45	0xb3f5713e	-1.14293e-07
46	0xb3f01804	-1.1180239e-07
47	0xb3f0289e	-1.1183259e-07
48	0xb3f276b8	-1.1290598e-07
49	0xb3f3cdb0	-1.13529836e-07
50	0xb3ed8916	-1.1061108e-07
51	0xb3f288d3	-1.1293891e-07
52	0xb3f7b5b7	-1.15348875e-07
53	0xb3f14fed	-1.12369754e-07
54	0xb3fafd58	-1.1687615e-07
55	0xb3fa90f2	-1.16678976e-07
56	0xb3fa6c4e	-1.1661233e-07
57	0xb3fc6ee6	-1.1754837e-07
58	0xb3f80cef	-1.15507525e-07
59	0xb3f8ff36	-1.15948225e-07
60	0xb40131c4	-1.2032166e-07
61	0xb402ac8f	-1.216997e-07
62	0xb4063291	-1.2498118e-07
63	0xb40a6ca5	-1.2891776e-07
64	0xb40bbbe8	-1.3013744e-07
65	0xb40fdf01	-1.3399041e-07
66	0xb40e4a92	-1.3251909e-07
67	0xb4104319	-1.3435455e-07
68	0xb4120704	-1.3599862e-07
69	0xb4124971	-1.3624027e-07
70	0xb413196a	-1.3699687e-07
71	0xb41372bd	-1.3732183e-07
72	0xb4139d12	-1.3747584e-07
73	0xb4136ceb	-1.3730066e-07
74	0xb41430f0	-1.3801377e-07
75	0xb414ab13	-1.384581e-07
76	0xb4152519	-1.3890202e-07
77	0xb413be9a	-1.3759782e-07
78	0xb413f4f4	-1.3779555e-07
79	0xb41487ec	-1.3833022e-07
80	0xb4168756	-1.4019074e-07
81	0xb417b8ef	-1.413025e-07
82	0xb41877b4	-1.4199651e-07
83	0xb417efb5	-1.4150176e-07
84	0xb418df41	-1.4237322e-07
85	0xb41a86fc	-1.4391475e-07
86	0xb417e619	-1.414668e-07
87	0xb41d87da	-1.4671187e-07
88	0xb41efb05	-1.4806217e-07
89	0xb420cb94	-1.4975222e-07
90	0xb42103a4	-1.4995618e-07
91	0xb4203b25	-1.4922678e-07
92	0xb422c5f4	-1.515944e-07
93	0xb4269ab3	-1.5516234e-07
94	0xb42972f9	-1.5781178e-07
95	0xb42ad5cd	-1.5910264e-07
96	0xb429cf37	-1.5814736e-07
97	0xb42fed90	-1.638457e-07
98	0xb4327566	-1.6620251e-07
99	0xb4342e9d	-1.6780764e-07
100	0xb4354bbb	-1.6884489e-07
101	0xb435b443	-1.6922517e-07
102	0xb43600b4	-1.6950327e-07
103	0xb43656cf	-1.6981652e-07
104	0xb436b00a	-1.7014113e-07
105	0xb437e406	-1.7126158e-07
106	0xb4385346	-1.716663e-07
107	0xb43990f4	-1.7282201e-07
108	0xb43847fd	-1.7162525e-07
109	0xb43a3891	-1.7343179e-07
110	0xb4399eea	-1.728728e-07
111	0xb4378410	-1.7091247e-07
112	0xb43b017c	-1.7416272e-07
113	0xb438bf94	-1.7206031e-07
114	0xb43aecd6	-1.740876e-07
115	0xb43837b4	-1.71566e-07
116	0xb43ae3bb	-1.7405448e-07
117	0xb43adeda	-1.7403673e-07
118	0xb43af56b	-1.7411882e-07
119	0xb43abdd6	-1.7391662e-07
120	0xb43ced61	-1.7595222e-07
121	0xb43cf6cf	-1.7598653e-07
122	0xb43f91d2	-1.784131e-07
123	0xb43f62d8	-1.782422e-07
124	0xb4402379	-1.7894298e-07
125	0xb4408adc	-1.793191e-07
126	0xb43f004c	-1.7788369e-07
127	0xb441ade8	-1.8037792e-07
128	0xb441347f	-1.7993624e-07
129	0xb442077a	-1.8070378e-07
130	0xb442e95f	-1.8152558e-07
131	0xb4402861	-1.7896083e-07
132	0xb443cf48	-1.8236199e-07
133	0xb4442d4b	-1.82704e-07
134	0xb4421613	-1.8075689e-07
135	0xb4428af2	-1.8118206e-07
136	0xb4423ce5	-1.8089811e-07
137	0xb443a4f6	-1.8220803e-07
138	0xb443d667	-1.823879e-07
139	0xb4418393	-1.8022392e-07
140	0xb4445ad3	-1.8286964e-07
141	0xb4444893	-1.8280325e-07
142	0xb443bbf5	-1.8229169e-07
143	0xb4434983	-1.8187534e-07
144	0xb443cad6	-1.8234581e-07
145	0xb43f57a6	-1.7820147e-07
146	0xb43e11df	-1.770163e-07
147	0xb4399e41	-1.728704e-07
148	0xb438bd25	-1.7205146e-07
149	0xb43af999	-1.7413403e-07
150	0xb437cee8	-1.7118475e-07
151	0xb4351c2c	-1.6867187e-07
152	0xb4363f2e	-1.6973055e-07
153	0xb435548a	-1.6887694e-07
154	0xb432eaae	-1.6662918e-07
155	0xb433a288	-1.6729803e-07
156	0xb4317ab0	-1.6529043e-07
157	0xb433b09e	-1.6734927e-07
158	0xb430c9ff	-1.6464763e-07
159	0xb42e5630	-1.6236368e-07
160	0xb42e3df9	-1.6227558e-07
161	0xb42b71bc	-1.5966992e-07
162	0xb42cf8da	-1.610928e-07
163	0xb42c0540	-1.6020658e-07
164	0xbb248557	-0.002510389
165	0xbb25f5b4	-0.0025323452
166	0xbb15ce0e	-0.0022858414
167	0xbb3e85d6	-0.0029071472
168	0xbb8f9075	-0.0043812343
169	0xbc0ff803	-0.008787158
170	0xbc16d2f6	-0.00920557
171	0xbc3c7390	-0.011502162
172	0xbc8c7080	-0.017143488
173	0xbcaf689b	-0.021412184
174	0xbcb772ff	-0.022393702
175	0xbcc8c392	-0.024507318
176	0xbccf6441	-0.02531636
177	0xbcd8939e	-0.026437577
178	0xbcdddaa0	-0.027081788
179	0xbcdae19e	-0.02671891
180	0xbcd8aca9	-0.026449518
181	0xbcd3b0f3	-0.025841212
182	0xbcd2b0d0	-0.025719076
183	0xbccd7373	-0.025079465
184	0xbcc7a82a	-0.024372179
185	0xbcc92add	-0.024556572
186	0xbcc3c9ae	-0.02389988
187	0xbcb8b46e	-0.022546973
188	0xbcc23150	-0.023705155
189	0xbcea58d6	-0.028606813
190	0xbcfc2845	-0.03078092
191	0xbcf96f3f	-0.030448554
192	0xbcf8771e	-0.030330237
193	0xbcde3648	-0.027125493
194	0xbcd6f47a	-0.026239622
195	0xbcc12844	-0.02357877
196	0xbcaf685e	-0.02141207
197	0xbca7926c	-0.020455562
198	0xbca65ace	-0.02030697
199	0xbca45b93	-0.020063197
200	0xbc96ca05	-0.018406877
201	0xbc8b2ff7	-0.016990645
202	0xbc85cc99	-0.016332911
203	0xbc8ea783	-0.01741386
204	0xbc827ce8	-0.0159287
205	0xbc8fe4e6	-0.017565202
206	0xbc92d4aa	-0.017923672
207	0xbc8d6617	-0.017260594
208	0xbc8875a3	-0.016657656
209	0xbc7a81b6	-0.015289715
210	0xbc87a922	-0.016560141
211	0xbc8e0f6e	-0.017341342
212	0xbc87bca7	-0.016569449
213	0xbc96ac9c	-0.018392853
214	0xbca10d96	-0.019659799
215	0xbcb52950	-0.022114426
216	0xbcc2e963	-0.023792928
217	0xbccc9b14	-0.02497629
218	0xbcc7051a	-0.024294425
219	0xbcb91c3e	-0.022596475
220	0xbca79743	-0.02045787
221	0xbc9a8092	-0.018860135
222	0xbc8ee502	-0.017443184
223	0xbc87425e	-0.016511139
224	0xbc685cbe	-0.014182268
225	0xbc1f16b2	-0.009710001
226	0xbbd3f3c0	-0.0064682662
227	0xbb9cdcb6	-0.004787053
228	0xbb5c7a2a	-0.0033642151
229	0xbb36de02	-0.0027903323
230	0xbb0c5f6f	-0.0021419188
231	0xbab21f73	-0.0013589695
232	0x39cb9d54	0.00038836396
233	0x3b191d3f	0.002336338
234	0x3b64a068	0.0034885649
235	0x3bb731f1	0.0055906703
236	0x3bc49cc1	0.006000132
237	0x3ba38b17	0.004990946
238	0x3b3dec24	0.0028979862
239	0x3b5b95a5	0.0033505943
240	0x3b5405e9	0.0032352156
241	0x3b6564b7	0.0035002658
242	0x3b9fb1f0	0.0048735067
243	0x3baaaa75	0.0052083083
244	0x3ba7640c	0.005108362
245	0x3b566141	0.0032711776
246	0x3ae3a98e	0.0017369257
247	0xb9c374dc	-0.00037280365
248	0xba26c2ae	-0.0006361407
249	0xba783b7f	-0.0009469315
250	0xba33cd53	-0.0006858904
251	0xb9bfc0ec	-0.00036574097
252	0x3ac4a4d8	0.001500274
253	0x3b971e0c	0.004611736
254	0x3bb23d16	0.005439411
255	0x3c1e2cb8	0.0096542165

encoder.0.bias f4 [64]
0	0xb45102ea	-1.9465702e-07
1	0x3d9a7385	0.07541565
2	0xbdcefabb	-0.10106417
3	0xbe3312f3	-0.17487697
4	0xbe136c32	-0.14396742
5	0xbe1f6874	-0.1556719
6	0x3d71e86b	0.05905954
7	0xb42f253f	-1.6311695e-07
8	0x3e0a6431	0.13514782
9	0x3e183a3f	0.14865969
10	0x3e458102	0.19287494
11	0x3dff0e93	0.12453952
12	0xad937ae3	-1.6766538e-11
13	0x3e50f440	0.20405674
14	0x3e58d4ab	0.21174876
15	0xbe293321	-0.1652341
16	0x3e02c06c	0.12768716
17	0xbdb04113	-0.08606162
18	0xbcafba1f	-0.021451054
19	0x3e05565a	0.13021222
20	0xbae0b03c	-0.0017142366
21	0x3dfd159e	0.12357639
22	0x3d992d94	0.074793965
23	0x3e0c3ccb	0.13695066
24	0xbe1d4d60	-0.15361547
25	0xbe307276	-0.17231163
26	0x3eb11495	0.34586015
27	0xbcd21d77	-0.025648816
28	0xbd38bcb1	-0.045101825
29	0xbe0000ee	-0.12500355
30	0x3e110563	0.14162211
31	0x3e42a343	0.19007592
32	0xbdb289fc	-0.08717725
33	0x3dbf4964	0.0934017
34	0x3e19abe6	0.1500698
35	0x3e074430	0.13209605
36	0x3e154cc5	0.14580067
37	0x3e0dd281	0.13849832
38	0x3e307f4a	0.17236057
39	0xbd716a67	-0.058939364
40	0x3e400b38	0.1875428
41	0xbe22afe9	-0.15887417
42	0x318c7405	4.087726e-09
43	0x3e240293	0.16016607
44	0xbe4c5adc	-0.19956535
45	0x3de50838	0.11183208
46	0x3d0f0229	0.03491417
47	0x3d6a8424	0.057254925
48	0x3e50c6b5	0.203883
49	0x3e01213b	0.12610333
50	0x3e640907	0.22269069
51	0x3d9a98d5	0.07548682
52	0x3dfe1606	0.124065444
53	0x3e55cb52	0.20878342
54	0x3e263a9c	0.16233295
55	0xbdfbe1a1	-0.12298895
56	0x3e4f0711	0.2021754
57	0xbe2f26e9	-0.17104687
58	0x3e241585	0.16023834
59	0x3e4f324b	0.20234029
60	0xbd84fc0a	-0.06493385
61	0xbe02cbe6	-0.12773094
62	0xbe255bde	-0.16148326
63	0x3d8b4729	0.06800682

encoder.2.weight f4 [32, 64]
0	0xb40644e0	-1.2504779e-07
1	0x3d975782	0.07389738
2	0x3cfa60ea	0.03056379
3	0x3d8419b6	0.064502165
4	0x3cc9f6ee	0.024653878
5	0x3d6c296f	0.0576567
6	0x3db3cd2b	0.08779367
7	0x3290bf44	1.6850784e-08
8	0x3d3c2554	0.045934036
9	0x3d0487c1	0.032356028
10	0x3d2b31be	0.041795485
11	0x3d90a0be	0.07061909
12	0x2c046d2d	1.8818933e-12
13	0x3d411f9d	0.04714929
14	0x3cff21ac	0.031143986
15	0xbc88a897	-0.016681952
16	0x3da3eaed	0.08003793
17	0x3d0e91e5	0.034807105
18	0xbce7d6ec	-0.028300725
19	0x3d40e336	0.047091685
20	0xb9eaf81a	-0.00044816808
21	0x3cee00cc	0.029053114
22	0xbc6d8074	-0.014495958
23	0x3c2887fb	0.0102863265
24	0xbcb49e60	-0.022048175
25	0x3d6684a3	0.056278836
26	0x3e4ddf4a	0.2010471
27	0xbca729c4	-0.020405658
28	0xbd4c3bfd	-0.049861897
29	0x3d1020bf	0.03518748
30	0x3d4fbf3e	0.050719492
31	0x3d4757c6	0.04866769
32	0x3d1056b0	0.03523892
33	0x3d675718	0.056479543
34	0x3d99f786	0.075179145
35	0x3dcd8104	0.100343734
36	0x3d2dbb27	0.04241481
37	0x3d00a62e	0.03140848
38	0x3d11e687	0.03562024
39	0x3d9349ad	0.07191787
40	0x3b453b97	0.0030095333
41	0x3c84c7e3	0.016208595
42	0x307ec6a5	9.268695e-10
43	0x3de54be6	0.11196117
44	0x3d982c32	0.074303046
45	0x3d138f66	0.036025427
46	0x3dd56eac	0.104214996
47	0x3dafa4bb	0.08576342
48	0x3dec5e80	0.11541462
49	0x3d04c6f9	0.032416318
50	0x3d984f68	0.074370205
51	0x3daf5135	0.08560411
52	0x3d9b1e1e	0.07574104
53	0x3d3145bd	0.0432794
54	0x3ce06c87	0.0273955
55	0x3dda49bf	0.10658597
56	0x3db7cff0	0.08975208
57	0x3c72a880	0.014810681
58	0x3caaa262	0.020829383
59	0x3d997801	0.07493592
60	0x3d83657b	0.0641584
61	0x3d8a765f	0.06760859
62	0x3d3cda35	0.046106536
63	0x3daf0a5c	0.08546898
64	0x33c3759c	9.101788e-08
65	0xbbcc1282	-0.0062277922
66	0x3de93c38	0.11388439
67	0x3e02c70c	0.12771243
68	0x3e05957d	0.13045307
69	0x3db9d54b	0.090738855
70	0x3cd2965a	0.025706459
71	0xb10147ff	-1.8812896e-09
72	0xbd1b4b36	-0.037913524
73	0x3c5904e3	0.013245794
74	0x3b0b55fd	0.002126097
75	0xbbb73bea	-0.005591859
76	0x2c184bda	2.1642605e-12
77	0xbb954941	-0.0045558517
78	0x3c389e56	0.011268219
79	0x3dfffcd5	0.12499396
80	0x3b915c5b	0.0044360585
81	0x3d922f75	0.07137958
82	0x3e1031a5	0.14081438
83	0xbc8f0acc	-0.017461203
84	0x3a2ee910	0.0006672302
85	0xbcec886f	-0.02887365
86	0x3bc647b8	0.00605103
87	0x3b02ce93	0.0019959554
88	0x3e0f4b32	0.13993528
89	0x3e1b436e	0.15162441
90	0x3cf74cd1	0.030187996
91	0x3cfe92a8	0.03107579
92	0x3d3ee6ca	0.046606816
93	0x3d8526c9	0.06501538
94	0x3b389d63	0.0028169982
95	0x3bfadc7f	0.0076556797
96	0x3d4d9a09	0.050195727
97	0x3da072ee	0.07834421
98	0x3b52459e	0.0032084952
99	0x3d68abfe	0.05680465
100	0xbc28dac6	-0.010306066
101	0x3b5b7bff	0.0033490655
102	0xbccbeed8	-0.024894163
103	0x3e0dfbda	0.13865605
104	0x3c8bac78	0.017050013
105	0x3cad5197	0.02115707
106	0xb05188dd	-7.622825e-10
107	0x3d3b69c4	0.045755163
108	0x3cf2ab7e	0.02962279
109	0xbc87f50f	-0.016596345
110	0xbca42fe2	-0.020042364
111	0x3c869507	0.016428484
112	0xbd40fe94	-0.047117785
113	0xbb38aeba	-0.0028180317
114	0xbd37d980	-0.04488516
115	0x3de8cbf1	0.11367024
116	0x3be5dfd7	0.007015209
117	0xbd60ed4c	-0.054913804
118	0xbcc14c87	-0.023596061
119	0x3dd13544	0.10215238
120	0x3d591f16	0.05300816
121	0x3db1695f	0.08662676
122	0x3c489835	0.01224332
123	0xbd85e9c3	-0.06538727
124	0x3dd510cd	0.10403595
125	0x3dd251a6	0.102694795
126	0x3d85ecb4	0.06539288
127	0x3db0e601	0.0863762
128	0x33a67fe9	7.753244e-08
129	0xbd8c42dc	-0.0684869
130	0x3c3eeb57	0.011652789
131	0x3cb77ea7	0.02239926
132	0x3c945857	0.01810853
133	0x3c752e6f	0.014964684
134	0x3c18b912	0.009321468
135	0xb24508a7	-1.14688765e-08
136	0x3d494de7	0.04914656
137	0x3b7d08ba	0.0038609938
138	0xbbeff1d9	-0.0073225317
139	0xbd8a6e6d	-0.06759343
140	0xac204bfb	-2.2779545e-12
141	0xbb09196f	-0.00209197
142	0x3b6e86a2	0.0036396165
143	0x3d0adf89	0.033904586
144	0xbd0f9bd7	-0.03506073
145	0x3cd75c96	0.026289266
146	0x3d4307e9	0.047614966
147	0xbd3a1c60	-0.045437217
148	0x387fb3aa	6.0964063e-05
149	0x3d7a6c30	0.061138332
150	0x3c3f30df	0.011669367
151	0x3be77e66	0.0070646284
152	0x3d5a1fbf	0.05325293
153	0x3d01ce9f	0.03169119
154	0xbe07dad5	-0.13267072
155	0x3cce4961	0.025181474
156	0x3daded77	0.084925584
157	0x3b8f8d66	0.0043808697
158	0xbd07d563	-0.033162486
159	0x3ad24797	0.0016043064
160	0xbd1fc43e	-0.03900551
161	0xbbd19a00	-0.006396532
162	0xbcf16489	-0.029466884
163	0x3b1b9959	0.0023742525
164	0x3c6fd75e	0.01463875
165	0x3d5f2b6a	0.054484762
166	0x3cbf0d17	0.023321671
167	0xbd84d5bb	-0.06486078
168	0x3c736fc5	0.014858191
169	0x3c614fcc	0.013751935
170	0xafce1a9a	-3.7490083e-10
171	0x3c2c242c	0.010506671
172	0x3d00e226	0.031465672
173	0x3d5875f7	0.052846875
174	0xbdc70555	-0.09717814
175	0xbdb750ec	-0.089509815
176	0xbc2bae16	-0.010478517
177	0x3d9bf9cf	0.076160066
178	0xbca1d57a	-0.019755114
179	0xbb9cd93e	-0.0047866395
180	0xbd6034fa	-0.054738022
181	0x3bb4db88	0.005519334
182	0x3a9c51ee	0.0011926272
183	0x3c401ecb	0.011726092
184	0x3aa94d83	0.0012916777
185	0x3cbb7ade	0.022885736
186	0x3c15895a	0.009126985
187	0xbcdf5d18	-0.02726607
188	0x3c5b649a	0.0133906845
189	0x3ca21c2e	0.019788828
190	0x3c436edd	0.011928287
191	0xbca08aa0	-0.019597352
192	0xae97568f	-6.882061e-11
193	0x3b9e617f	0.0048334
194	0xbbaf7494	-0.0053544734
195	0xbca32081	-0.01991296
196	0xbc4d6c49	-0.012538024
197	0xbc5f763a	-0.013639027
198	0xb96ef3c2	-0.00022788256
199	0xafac3c8e	-3.1329644e-10
200	0x392555f0	0.0001576764
201	0x3b8eac85	0.004354062
202	0x3bda8dbf	0.0066697295
203	0x3b9ca48c	0.0047803577
204	0xa9287a51	-3.7409586e-14
205	0x3b3d5408	0.0028889198
206	0x3bbdd0c2	0.005792708
207	0xbc2593a7	-0.010106004
208	0x3bf2436a	0.0073932903
209	0xbbbcd5d0	-0.005762793
210	0x80055c65	-4.92322e-40
211	0x3b8a52bd	0.004221289
212	0xb5213b87	-6.00638e-07
213	0x3844a586	4.6884197e-05
214	0x3af24f26	0.0018486723
215	0x3acd4bf3	0.0015662893
216	0xbc33fa07	-0.010984904
217	0xbcdf9b6c	-0.02729579
218	0x3b63bbf5	0.0034749482
219	0xbaa24b95	-0.0012382144
220	0xbb994ddf	-0.0046784724
221	0xbbe0d5b5	-0.0068614134
222	0x3b3c152a	0.0028699138
223	0x3bad8616	0.0052955253
224	0x39b1c933	0.00033909976
225	0xbbefcfc6	-0.0073184697
226	0x3bfc3604	0.007696869
227	0x39952dfb	0.00028453753
228	0x3b12b0b1	0.0022383148
229	0x3882c477	6.2354775e-05
230	0x3b12e530	0.0022414438
231	0xba5ebab8	-0.0008496451
232	0x3b9e952c	0.00483956
233	0xbc1eac2a	-0.009684602
234	0x2f455d36	1.7950161e-10
235	0xbbe89ca2	-0.00709875
236	0xbc92f17d	-0.017937416
237	0x378803eb	1.6214288e-05
238	0x3bb38b48	0.00547925
239	0x3ba1f0ae	0.0049420213
240	0x3b35e119	0.0027752577
241	0xba8b88f3	-0.0010645672
242	0x3bc0f141	0.0058881347
243	0xbc814f86	-0.01578499
244	0x3be9b75c	0.007132454
245	0x3b3b6109	0.0028591773
246	0x3ba11e77	0.004916962
247	0xbcd8a19d	-0.02644425
248	0x3aac8afd	0.001316398
249	0xbc137cbf	-0.00900191
250	0x3b92c572	0.0044791037
251	0x3c44600d	0.011985791
252	0xbc884e1c	-0.016638808
253	0xbcad4b9c	-0.021154217
254	0xbc9af03c	-0.01891338
255	0x3bca3a72	0.006171518

encoder.2.bias f4 [32]
0	0x3d77de20	0.06051457
1	0xbe07b42c	-0.13252324
2	0x3d133e1a	0.035947897
3	0x3d2ed346	0.042681955
4	0x2ce90b41	6.6235077e-12
5	0xb59a0274	-1.1474608e-06
6	0x3de14059	0.109986015
7	0x3e0b8f0d	0.13628788
8	0x3e835eae	0.25658172
9	0x3dabfecb	0.08398207
10	0xbe449667	-0.19197999
11	0xbd9df658	-0.07713002
12	0xa74e9c21	-2.867288e-15
13	0x3d9d8e57	0.07693165
14	0x3e7b152f	0.245198
15	0xbe009ca2	-0.1255975
16	0x9f29f876	-3.5992664e-20
17	0x3e049d5c	0.12950653
18	0xaf590999	-1.9739445e-10
19	0x3e08a2a1	0.13343288
20	0x3e1f8105	0.15576561
21	0x00055ab9	4.91723e-40
22	0x86634e58	-4.2751513e-35
23	0x3e80c912	0.25153404
24	0xbe74752c	-0.23872823
25	0x8013c790	-1.816464e-39
26	0x3e2b4e2d	0.1672904
27	0xbe5b3ba6	-0.21409473
28	0xbe1dc26b	-0.15406196
29	0x3e2db001	0.16961671
30	0x3e3d7d90	0.1850493
31	0x3e971b6c	0.2951311

encoder.4.weight f4 [16, 32]
0	0x3d70cd4a	0.05878953
1	0x3afaa917	0.0019123879
2	0x3e296a34	0.1654442
3	0x3cb817b2	0.022472236
4	0xae30f72b	-4.0237296e-11
5	0xb413ebf3	-1.377628e-07
6	0x3e2509f0	0.16117072
7	0x3e40c29a	0.18824235
8	0x3e254086	0.16137895
9	0x3d4f54af	0.05061787
10	0xbe20b8bb	-0.15695469
11	0xbe0fa9b2	-0.14029577
12	0xa7b3228b	-4.971993e-15
13	0x3e27f8f4	0.16403562
14	0x3d12aec2	0.035811193
15	0xbd75f67d	-0.060049523
16	0x1ea31660	1.726755e-20
17	0x3d82f416	0.06394212
18	0x3098fdd4	1.1131598e-09
19	0x3d877581	0.06614209
20	0xba1f60b5	-0.0006079779
21	0x8005720f	-5.00094e-40
22	0x88032efd	-3.9476613e-34
23	0x3db966b3	0.090527914
24	0x3ccc2bbc	0.024923198
25	0x009bed5e	1.4319653e-38
26	0xbc8c71a0	-0.017144024
27	0xbe2fce8a	-0.17168632
28	0xbe32b49b	-0.17451708
29	0x3e28c958	0.16483057
30	0x3e4693ca	0.19392315
31	0x3ded49e3	0.115863584
32	0x3d9172a5	0.07101945
33	0xbe2182c3	-0.15772538
34	0xbda63e20	-0.08117318
35	0x3d9ef34e	0.077612504
36	0x2e9208cc	6.640874e-11
37	0xb4eb26ab	-4.3800296e-07
38	0x3dfc9d6a	0.12334712
39	0x3db85033	0.08999672
40	0x3e2bc266	0.16773376
41	0x3d663abd	0.05620836
42	0xbd759b6b	-0.05996267
43	0x3d83624a	0.064152315
44	0xa8a1449c	-1.7904345e-14
45	0x3d701dd7	0.058622207
46	0x3e75d586	0.24007234
47	0xbdf4f216	-0.11960237
48	0x1fbfe62a	8.127242e-20
49	0x3e1f6d1f	0.1556897
50	0x307fefbf	9.310916e-10
51	0x3e0c898b	0.13724343
52	0x3dcdd6a7	0.10050707
53	0x00026d04	2.22778e-40
54	0x09f51f9a	5.9011323e-33
55	0x3dcc3130	0.09970319
56	0xbe47b7d0	-0.19503713
57	0x0106e2bf	2.4774595e-38
58	0x3e1bc2a2	0.15210965
59	0xbdb80ba1	-0.08986593
60	0xbde9debc	-0.11419436
61	0x3e2cdc5d	0.16880937
62	0x3e8f9f23	0.280511
63	0x3edfd299	0.4371536
64	0x3e2bb822	0.1676946
65	0xbd2bd410	-0.041950285
66	0xbda92c1e	-0.08260368
67	0x3cab2a82	0.020894293
68	0x2dfe934e	2.8941873e-11
69	0xb4acd370	-3.2191338e-07
70	0x3d80c5b5	0.062877096
71	0x3ddcb59b	0.10776826
72	0x3d6a8ab2	0.057261176
73	0x3b264c8c	0.0025375215
74	0xbe171a5c	-0.14756149
75	0x3c3fce94	0.011706967
76	0x274c5da9	2.836146e-15
77	0x3e8135fd	0.25236502
78	0x3e58a69d	0.21157308
79	0xbde3eca8	-0.11129123
80	0x9f084b49	-2.8861395e-20
81	0x3be5413c	0.006996302
82	0x310790a5	1.9727306e-09
83	0x3d4324b6	0.047642432
84	0x3d59f979	0.05321643
85	0x800563f1	-4.9503e-40
86	0x099e527a	3.8114677e-33
87	0x3de6eaf5	0.11275283
88	0xbd75cbbd	-0.060008753
89	0x801da4d4	-2.722359e-39
90	0x3d98228a	0.07428463
91	0xbc685b75	-0.014181961
92	0xbdd87d8d	-0.10570822
93	0x3e1d0888	0.15335286
94	0x3df9b092	0.12191881
95	0x3ea39c6d	0.3195528
96	0x3db9fad4	0.09081045
97	0x3e2e5f19	0.17028464
98	0xbd51ae78	-0.051191777
99	0xbc9b1485	-0.018930683
100	0xac3517d7	-2.573488e-12
101	0x3288824c	1.5891736e-08
102	0x3c8e09a5	0.017338583
103	0x3dd3f932	0.103502646
104	0xbdb9831b	-0.090582095
105	0xbd1326cc	-0.03592567
106	0x3e65ea74	0.22452718
107	0x3dba013a	0.09082265
108	0x26acf49d	1.20012e-15
109	0x3e0c96ae	0.13729355
110	0x3b9a5d6d	0.0047108443
111	0x3e620fe9	0.22076382
112	0x9f377af1	-3.8853452e-20
113	0x3d34b8b0	0.044121444
114	0xad8b7278	-1.5853305e-11
115	0xbd5d9831	-0.05410022
116	0x3ca6657a	0.02031206
117	0x0005605f	4.93749e-40
118	0x86faf1ec	-9.439502e-35
119	0xbd77fc9e	-0.06054365
120	0x3de2a288	0.110661566
121	0x0005c7bc	5.30829e-40
122	0x3e23e6c1	0.16005994
123	0x3e704bc5	0.23466404
124	0x3e19054a	0.14943424
125	0xbc9b431c	-0.018952899
126	0x3e58a370	0.21156096
127	0xbce5e67d	-0.028064007
128	0x3e139888	0.14413655
129	0xbd8de56b	-0.06928524
130	0xbd910b3c	-0.07082221
131	0xbb1ed566	-0.0024236082
132	0x2e66d83e	5.2488007e-11
133	0xb4c7ada9	-3.7192993e-07
134	0x3de171ae	0.11008011
135	0x3e60b8be	0.21945474
136	0x3dae7125	0.08517674
137	0x3d5d2035	0.053985793
138	0xbe203c70	-0.15648055
139	0xbde51c6c	-0.11187062
140	0x28c9feed	2.242604e-14
141	0x3e17559d	0.14778753
142	0x3e5718bd	0.2100553
143	0xbda943a0	-0.082648516
144	0x1fa80f4e	7.117609e-20
145	0x3e1ef1be	0.15521905
146	0x310a7a1b	2.0151052e-09
147	0x3d88c3bb	0.066779576
148	0x3e70119e	0.2344422
149	0x00055e7b	4.9307e-40
150	0x09dd4927	5.3272607e-33
151	0x3e1c440b	0.15260331
152	0x3d942db8	0.07235283
153	0x0032a99b	4.652618e-39
154	0x3e3bc1ef	0.18335699
155	0xbd4ed663	-0.050497424
156	0xbdfb3912	-0.12266745
157	0x3d934b2b	0.071920715
158	0x3d5acfd5	0.05342086
159	0x3ecf8524	0.40531266
160	0x1134052c	1.420109e-28
161	0x12f09d75	1.5184946e-27
162	0x8dedb5c9	-1.4650016e-30
163	0x09b188b4	4.2739755e-33
164	0x01a3d6cb	6.0184956e-38
165	0x8005823d	-5.05898e-40
166	0x8f0ecacc	-7.040198e-30
167	0x9a995272	-6.3412514e-23
168	0x0e9ef8b4	3.91895e-30
169	0x89bdc19f	-4.5682175e-33
170	0x9b28f5da	-1.3976073e-22
171	0x102aeed0	3.3710563e-29
172	0x00057a46	5.03041e-40
173	0xabc3cf6e	-1.3913157e-12
174	0x1356b847	2.7101453e-27
175	0x101f899a	3.1463225e-29
176	0x00060445	5.52545e-40
177	0x0f571e43	1.06061466e-29
178	0x0005ba8a	5.26095e-40
179	0x0f34e491	8.9187055e-30
180	0x18ca0496	5.2220407e-24
181	0x80055a0a	-4.91477e-40
182	0x000577ad	5.02109e-40
183	0x8f6818cc	-1.1443259e-29
184	0x19fa1947	2.5859604e-23
185	0x80059945	-5.1416e-40
186	0x111c3865	1.2323608e-28
187	0x19bc66e6	1.9480305e-23
188	0x8f62e3e3	-1.118655e-29
189	0x0eb1f87e	4.3873158e-30
190	0x15feea76	1.029597e-25
191	0x0bdb15f9	8.438879e-32
192	0xbcf1ca28	-0.02951534
193	0xbdc2d19c	-0.09512636
194	0xbb938d0c	-0.004502898
195	0x3c989cf1	0.018629523
196	0xa901bbdb	-2.8806693e-14
197	0x320ee8c7	8.318415e-09
198	0x3d2924d9	0.041294906
199	0xbd077391	-0.033069197
200	0x3d842cb2	0.064538375
201	0x3d0cf345	0.034411687
202	0xbdfa2181	-0.122134216
203	0xbda5b14a	-0.08090456
204	0xa3897005	-1.4901012e-17
205	0xbdb92063	-0.090393804
206	0x3ce73f43	0.028228408
207	0xbd97e247	-0.07416206
208	0x1f31fa38	3.7688184e-20
209	0x3d06a86d	0.032875467
210	0x2f105b85	1.3129238e-10
211	0x3ca3711c	0.019951396
212	0xbcc02075	-0.023452977
213	0x00057d35	5.04093e-40
214	0x0681f62a	4.888611e-35
215	0x3d9d2246	0.07672553
216	0xbdf65a6f	-0.120289676
217	0x00059d13	5.15525e-40
218	0x3b9eeb11	0.0048497994
219	0xbdfe27d2	-0.12409939
220	0xbdb3d753	-0.08781304
221	0x3d3a94cd	0.045552064
222	0xbc41afa6	-0.011821663
223	0x3e0b3a2f	0.13596414
224	0x3d8d6e8d	0.069058515
225	0x3df02174	0.11725131
226	0xbd6640e6	-0.056214236
227	0xbccd1cc8	-0.025038138
228	0xad90f6f8	-1.648058e-11
229	0x348cac03	2.6202187e-07
230	0x3d3979e3	0.045282256
231	0x3d45f095	0.04832514
232	0xbc34fffb	-0.011047359
233	0xbd38bab9	-0.045099948
234	0x3e83e7b0	0.257627
235	0x3dc69212	0.096958295
236	0x28954270	1.6571136e-14
237	0x3e542afe	0.20719525
238	0x3d8f81e4	0.070071965
239	0x3de0b61e	0.10972236
240	0x9ebe4d02	-2.0148882e-20
241	0xbdd53fdc	-0.10412571
242	0xafd1ab68	-3.813867e-10
243	0xbcf1840a	-0.029481906
244	0x3e47d752	0.19515732
245	0x80055c3b	-4.92264e-40
246	0x072b6f0a	1.2897242e-34
247	0xbe310032	-0.17285231
248	0x3e5fea5f	0.21866749
249	0x00a8f03f	1.5514547e-38
250	0x3d3cd226	0.04609885
251	0x3e2b939d	0.16755529
252	0x3e07f515	0.13277085
253	0xbda51a93	-0.08061709
254	0x3d412be8	0.047161013
255	0xbe174c4f	-0.14775203

encoder.4.bias f4 [16]
0	0x3e93b9fb	0.2885283
1	0x3e8bab02	0.27278906
2	0x3e643658	0.22286355
3	0xbe114a46	-0.1418849
4	0x3e742c1a	0.23844948
5	0x8eec4209	-5.824208e-30
6	0x3e13727b	0.1439914
7	0xbe62ecf3	-0.22160701
8	0xbb54bc9b	-0.003246105
9	0x3e651dd0	0.22374654
10	0xbdd2191e	-0.10258697
11	0xbde8e7c9	-0.113723345
12	0x3eb983ef	0.3623347
13	0xb4f36432	-4.533518e-07
14	0xaef86ff8	-1.1297624e-10
15	0x0f8760a0	1.3349246e-29

encoder.6.weight f4 [8, 16]
0	0x3d13c193	0.03607328
1	0xbd979843	-0.074020885
2	0x3d19a07d	0.03750657
3	0x3e0c5887	0.13705646
4	0xbd140722	-0.036139615
5	0x9e825d9b	-1.3803e-20
6	0x800573c9	-5.00713e-40
7	0xbd951fa6	-0.07281427
8	0xbcd13525	-0.025538037
9	0xbe3a4d60	-0.18193579
10	0x3d03228c	0.03201537
11	0x3dd442b9	0.10364289
12	0xbda1a8bf	-0.07893514
13	0x33f3ff78	1.1362039e-07
14	0x98957825	-3.8636912e-24
15	0x0d2e1f16	5.365531e-31
16	0x3df581e0	0.11987662
17	0x3e933f49	0.2875922
18	0x3e5a2dc2	0.21306518
19	0xbe849a81	-0.25899127
20	0x3e714d77	0.23564707
21	0x0dc7c186	1.2310911e-30
22	0x3de10ea1	0.10989118
23	0xbe9d0e52	-0.30674988
24	0xad809d2d	-1.4621715e-11
25	0x3ea22449	0.31668308
26	0xbcda4f85	-0.026649246
27	0xbe5c1cc2	-0.21495345
28	0x3ed05dae	0.40696472
29	0xb24ed16f	-1.2038398e-08
30	0x8e069c38	-1.6591992e-30
31	0x0cbffe8c	2.958141e-31
32	0xbe1bfa83	-0.15232281
33	0xbde09d6c	-0.10967526
34	0xbd3413da	-0.043964244
35	0x3cf7187d	0.030163044
36	0xbd1cd88b	-0.03829245
37	0x0e4dfe46	2.539063e-30
38	0x00055aa3	4.91692e-40
39	0x3db7eede	0.08981107
40	0xb92c8d89	-0.00016455924
41	0xbd1be798	-0.038062662
42	0x3d482dc9	0.04887179
43	0x3d3a1278	0.04542777
44	0xbcf0c93d	-0.029392833
45	0xb3db46f9	-1.0210892e-07
46	0x800568c0	-4.96755e-40
47	0x0e11e7bc	1.7984206e-30
48	0x3d2f2593	0.042760443
49	0x3ea2d584	0.31803524
50	0x3e6af7b2	0.22946051
51	0x3daec026	0.08532743
52	0x3e8aff11	0.27147725
53	0xa7b7129e	-5.081289e-15
54	0xbded4baa	-0.115866974
55	0xbdf48bc8	-0.11940724
56	0xbc61656d	-0.013757092
57	0x3edb6873	0.42853126
58	0xbcf8faad	-0.030392969
59	0x3c788efb	0.015170808
60	0x3ed1c9b6	0.40974206
61	0xb4e9a84c	-4.3522084e-07
62	0x3913fde6	0.00014113597
63	0x0d890b75	8.446035e-31
64	0x3c926837	0.01787196
65	0xbd02a5eb	-0.031896513
66	0x3e4e2423	0.20130973
67	0x3e164730	0.14675593
68	0x3e8d40cd	0.27588502
69	0xb2248c44	-9.577949e-09
70	0xbe140256	-0.14454016
71	0x3e86c3bd	0.2632121
72	0xbd1bae20	-0.038007855
73	0xbc66a407	-0.014077193
74	0x3e71162e	0.23543617
75	0x3e3aa87c	0.18228334
76	0xbe5d2680	-0.21596718
77	0xb4f16d35	-4.4969207e-07
78	0xb539e945	-6.925732e-07
79	0x8e1ab8e7	-1.9070993e-30
80	0x3e300650	0.17189908
81	0x3ea2f4f5	0.31827512
82	0x3e5bc0e4	0.214603
83	0xbd18fcb6	-0.03735038
84	0x3eb01b6e	0.34395927
85	0xb655acc7	-3.1840043e-06
86	0x3dc0ed5e	0.09420274
87	0xbe7441e6	-0.23853263
88	0xbd1448bd	-0.03620218
89	0x3dc87538	0.09787983
90	0x3ce2dd1a	0.02769332
91	0x3d5ac23a	0.053407885
92	0x3ed261c5	0.41090217
93	0xb50bb823	-5.204949e-07
94	0xba163cd8	-0.00057311123
95	0x0e80a91b	3.171728e-30
96	0x3e6f44e6	0.23366126
97	0x3d93d24c	0.07217845
98	0x3d0875e0	0.03331554
99	0xbe61d775	-0.22054847
100	0x3dd24850	0.10267699
101	0x0d8dd368	8.74069e-31
102	0x3e941a9e	0.28926557
103	0xbe658932	-0.22415617
104	0xb9924980	-0.00027902052
105	0x3e05b213	0.13056211
106	0xbe1eb264	-0.15497738
107	0xbe3a6c37	-0.18205343
108	0x3d898e07	0.06716543
109	0xb22e5dac	-1.01494315e-08
110	0x880fa244	-4.322324e-34
111	0x8c245a0c	-1.2661198e-31
112	0xbd826830	-0.063675284
113	0xbd44599e	-0.047937028
114	0xbc8ef2e9	-0.017449813
115	0xbaec8522	-0.0018045048
116	0xbc87c1c5	-0.016571889
117	0x80056c11	-4.97944e-40
118	0x000578bb	5.02487e-40
119	0x3d9dd674	0.07706919
120	0x3c89461a	0.01675706
121	0xbc99fcfa	-0.018797386
122	0xbaa629ad	-0.0012677215
123	0x3c58f4bf	0.013241946
124	0xbbabb030	-0.005239509
125	0xb322950c	-3.785412e-08
126	0x80055cd4	-4.92478e-40
127	0x8cb505a4	-2.789086e-31

encoder.6.bias f4 [8]
0	0x3cb9fae7	0.022702647
1	0x3e466ce3	0.19377474
2	0xbe30991d	-0.17245908
3	0x3d0fc157	0.035096493
4	0xbe4ce379	-0.20008649
5	0x3edaba57	0.4272029
6	0x3e6d91c7	0.23200141
7	0xbdb8f471	-0.090309985

encoder.8.weight f4 [3, 8]
0	0x3dea0f74	0.11428729
1	0x3e50be80	0.2038517
2	0x3cb67056	0.022270363
3	0x3c0a5f27	0.008445538
4	0xbdb17d97	-0.086665325
5	0x3e5ef096	0.21771464
6	0x3ebc7636	0.36808938
7	0x3be8e701	0.007107616
8	0x3e259d0e	0.16173193
9	0xbeda69b4	-0.4265877
10	0xbe02153b	-0.12703411
11	0xbf0ec1e3	-0.557646
12	0xbc17fba4	-0.009276304
13	0xbf0ba59e	-0.54549587
14	0xbdf5b8c6	-0.11998133
15	0xbd643082	-0.055710323
16	0xbd335c89	-0.04378942
17	0xbebe3364	-0.37148583
18	0x3e21f6a4	0.15816742
19	0xbda75f9a	-0.081725314
20	0x3e95b71f	0.29241273
21	0xbecb70d9	-0.39734533
22	0xbede9d7f	-0.43479535
23	0x3d972632	0.07380332

encoder.8.bias f4 [3]
0	0x3f1fb0ac	0.62378955
1	0x3e63f53f	0.22261523
2	0xbe3f64f9	-0.18690862

decoder.0.weight f4 [8, 3]
0	0xbde34648	-0.110973895
1	0xbf272f05	-0.6530612
2	0x3ea3309d	0.31873026
3	0x3db9427e	0.090458855
4	0x3eab0072	0.33398777
5	0x3f6164cf	0.88044447
6	0x3e91d71d	0.2848443
7	0xbeedab81	-0.4641991
8	0xbef1fd28	-0.47263455
9	0xb85ddc82	-5.289587e-05
10	0x3a39751e	0.0007074642
11	0x3a346c14	0.000688256
12	0xbe6d53a1	-0.23176433
13	0xbdc851a0	-0.09781194
14	0x3f5eb725	0.86998206
15	0xbf272210	-0.6528635
16	0xbdeecc21	-0.11660028
17	0x3ef1bc90	0.47214174
18	0x3f34c1d0	0.70608234
19	0xbe1d2a7e	-0.1534824
20	0xbea992ae	-0.3311972
21	0xbe9803ce	-0.29690403
22	0xbf3e9e4d	-0.744603
23	0xbe43b938	-0.19113624

decoder.0.bias f4 [8]
0	0xbe008018	-0.12548864
1	0x3efd631a	0.4948967
2	0x3f192aa5	0.59830695
3	0xb96a0c76	-0.00022320621
4	0xbb54f653	-0.0032495453
5	0xbf259452	-0.64679444
6	0x3eb89374	0.36049998
7	0x3e243317	0.16035114

decoder.2.weight f4 [16, 8]
0	0x3e3fffee	0.18749973
1	0x3dc104a0	0.0942471
2	0x3e908cd7	0.28232452
3	0xb6eff95f	-7.1517857e-06
4	0xbe3caf39	-0.18426217
5	0x3ced109e	0.028938588
6	0x3e5b6838	0.21426475
7	0x3e217233	0.1576622
8	0x3e8de5b1	0.27714303
9	0xbe53248b	-0.20619409
10	0xbc037f5a	-0.008025968
11	0x38c23764	9.260958e-05
12	0x3ea713d6	0.3263232
13	0x3f0769eb	0.52895993
14	0xbe53f541	-0.20699026
15	0x3e23af12	0.15984753
16	0x3e9eac60	0.30990887
17	0x3e9dbc75	0.30807844
18	0x3ead247c	0.33816898
19	0x37b7a456	2.1891825e-05
20	0x3ebdd5e5	0.3707725
21	0x3e9f1c95	0.31076494
22	0x3df982d4	0.121831566
23	0x3d95b55e	0.07309984
24	0x8642affa	-3.6616632e-35
25	0x06cbd5bb	7.667416e-35
26	0x85dd8a5a	-2.0833562e-35
27	0x013c8e51	3.4632254e-38
28	0x065cac8c	4.150417e-35
29	0x855778d1	-1.0131442e-35
30	0x8600d37d	-2.42295e-35
31	0x8670f7e6	-4.532111e-35
32	0xbd258a93	-0.040415358
33	0x3ecd86cd	0.40141907
34	0xbe0a4b54	-0.13505298
35	0x39cc140f	0.00038924857
36	0x3ed24d09	0.41074398
37	0xbebe80ad	-0.37207547
38	0x3ecbe382	0.39822012
39	0xbd1f1ca7	-0.038845684
40	0xbe7c9ac8	-0.2466842
41	0xbb888dc1	-0.004167289
42	0x3ee05177	0.43812153
43	0x374d4532	1.2235063e-05
44	0x3e3c5504	0.18391806
45	0xbd64ff88	-0.055907756
46	0x3eedec0d	0.46469155
47	0x3d9342a4	0.07190445
48	0x3ee0e508	0.43924737
49	0xbe9b6371	-0.30349305
50	0x3e9adef6	0.3024823
51	0xb8f9e3b0	-0.00011915655
52	0x3e9a7571	0.30167726
53	0x3f2e6abb	0.6813161
54	0xbe2a2f50	-0.16619611
55	0x3ec68033	0.38769683
56	0xbe7ae56f	-0.24501584
57	0x3dd7cc6b	0.105370365
58	0x3edcce32	0.43126065
59	0xb8047775	-3.1582505e-05
60	0x3e375410	0.17903161
61	0xbec901cc	-0.39259183
62	0x3e12e62d	0.14345618
63	0x3d3224d4	0.043492153
64	0x3ea7d952	0.3278299
65	0xbd620d5d	-0.055188525
66	0x3eeb91c0	0.46009636
67	0xb938b6b3	-0.00017615668
68	0x3e454a3a	0.19266596
69	0x3ea03c97	0.31296226
70	0x3e0af509	0.13570036
71	0x3e3e3912	0.18576458
72	0xbe72f50d	-0.23726292
73	0x3e90e034	0.28296053
74	0x3f038e31	0.5138884
75	0xb96036eb	-0.00021382763
76	0xbe47b9d2	-0.19504479
77	0x3d596d84	0.053082958
78	0x3eb9a8f3	0.3626171
79	0x3ec62578	0.3870046
80	0x3e4570e6	0.19281349
81	0xbe3db2e1	-0.18525268
82	0x3e6dd306	0.2322503
83	0xb917a6da	-0.00014462639
84	0xbd546b45	-0.051860113
85	0xbe64061e	-0.22267959
86	0x3db15b5e	0.08660005
87	0xbe3fe988	-0.18741429
88	0x3ec61cb6	0.3869378
89	0xbe9e81cd	-0.30958405
90	0xbebb243e	-0.36551088
91	0xb890271b	-6.873739e-05
92	0x3e70b1e2	0.23505357
93	0x3f04d019	0.5188003
94	0x3d97448b	0.073861204
95	0x3eb2868e	0.34868282
96	0x3d46844b	0.04846601
97	0xbe68de1e	-0.22740981
98	0x3d886129	0.06659157
99	0x00056968	4.9699e-40
100	0xbde4404d	-0.11145077
101	0x3e7d2572	0.24721316
102	0x3ea865e9	0.3289025
103	0x3ddef7f8	0.1088714
104	0x3e6d1848	0.23153794
105	0x3ee61f1c	0.4494561
106	0xbcca9daf	-0.024733393
107	0x39b9f039	0.0003546493
108	0x3ef12916	0.4710166
109	0x3ead865e	0.33891577
110	0xbd91a1a4	-0.07110909
111	0xbcc0924e	-0.023507264
112	0xbe785ce5	-0.24254186
113	0x3eaa547a	0.33267576
114	0xbea2c583	-0.31791314
115	0x39da8c12	0.0004168456
116	0x3e14d2a9	0.14533485
117	0x3cbf86b9	0.02337967
118	0xbe35ac17	-0.17741428
119	0xbeb9cb1b	-0.3628777
120	0x3cd17391	0.025567802
121	0x3f0920f9	0.5356594
122	0xbee2cb28	-0.4429562
123	0x39e46161	0.00043560102
124	0x3ef7d1e3	0.48402318
125	0x3ed8d81c	0.42352378
126	0xbf04882f	-0.517703
127	0xbe9b3e73	-0.30321082

decoder.2.bias f4 [16]
0	0xbd818ae5	-0.0632532
1	0xbde52d1f	-0.11190247
2	0x3caeb804	0.02132798
3	0x066997a8	4.393385e-35
4	0x3f0fceba	0.56174815
5	0x3ec77fbd	0.38964644
6	0x3dbf936f	0.093542926
7	0x3ebf6604	0.3738252
8	0x3e25bbdd	0.16184945
9	0xbe18b528	-0.14912856
10	0x3eb4aa5d	0.35286227
11	0xbc4aa731	-0.012368963
12	0xbe3c51e0	-0.18390608
13	0x3ddd2405	0.10797886
14	0x3d8efe21	0.06982065
15	0x3e78607e	0.24255559

decoder.4.weight f4 [32, 16]
0	0x3d23934c	0.039935395
1	0x3e534adc	0.20634025
2	0x3d182bbe	0.03715109
3	0x856461c7	-1.0738467e-35
4	0xbbe88d99	-0.007096958
5	0xbd8cac9b	-0.068688594
6	0x3e03e9cc	0.12882155
7	0x3d3b100b	0.045669597
8	0x3cfb13a3	0.030649012
9	0xbe02764c	-0.12740439
10	0x3c84055c	0.016115837
11	0x3e1ece72	0.1550844
12	0x3d2e967d	0.042623986
13	0x3dfb2757	0.12263363
14	0xbc110427	-0.008851088
15	0x3d96f3b1	0.07370699
16	0x3d03659b	0.03207932
17	0x3d5535b0	0.052053154
18	0x3e87523f	0.26429936
19	0x0555cf64	1.00533035e-35
20	0x3e2c02d6	0.16797957
21	0x3e2e90b2	0.17047384
22	0x3e8c9d35	0.2746369
23	0x3df5098f	0.11964714
24	0x3e73d3d7	0.23811279
25	0x3e89140e	0.26773113
26	0x3e4ab482	0.19795421
27	0xbd296d2e	-0.041363887
28	0x3d4ce1ab	0.0500199
29	0x3dbacae3	0.09120729
30	0xbd8f9a45	-0.070118465
31	0x3d0a6a85	0.03379299
32	0xbdf426a5	-0.11921433
33	0x3e960cce	0.29306644
34	0x3d804636	0.06263392
35	0x845f6b89	-2.6262902e-36
36	0xbd929b62	-0.07158543
37	0x3db02989	0.08601672
38	0x3e8f223a	0.279558
39	0xbdcf62ee	-0.10126291
40	0x3e022fbd	0.12713523
41	0xbdc115f0	-0.09428012
42	0xbe740c23	-0.23832755
43	0x3e6fe9f7	0.23429094
44	0xbdd52064	-0.10406569
45	0x3e95928a	0.29213363
46	0x3de0cfe7	0.10977154
47	0x3e94c615	0.29057375
48	0x3e0d15ea	0.13777891
49	0xbe685711	-0.22689463
50	0x3dc3ad08	0.095544875
51	0x059a180f	1.4490928e-35
52	0x3e28484b	0.16433828
53	0x3e84e4a1	0.2595568
54	0x3c863cf0	0.01638648
55	0x3ebf19b3	0.37324294
56	0x3c707b87	0.014677889
57	0xbd80a577	-0.0628156
58	0x3cb27b3d	0.02178728
59	0xbe8f5e74	-0.2800175
60	0x3b1ad4cc	0.0023625372
61	0x3cb5983c	0.022167318
62	0x3d5e56c4	0.054281965
63	0xba2b18ec	-0.0006526846
64	0xbe4971ec	-0.19672364
65	0xbec02aad	-0.3753256
66	0x3e46667b	0.1937503
67	0x07073955	1.017312e-34
68	0x3f163a5a	0.5868279
69	0x3e8fbea0	0.28075123
70	0xbee87d7c	-0.45408237
71	0x3eae2fe3	0.3402091
72	0xbdc088de	-0.09401105
73	0xbda6887d	-0.08131502
74	0xbd70297e	-0.05863332
75	0xbf00cfda	-0.50317156
76	0x3bd8223e	0.006595879
77	0x3eaaebf5	0.33383146
78	0x3e8fc2a3	0.28078184
79	0x3f3d7d69	0.74019486
80	0xbd9f6a57	-0.077839546
81	0x3eb04d73	0.3443409
82	0x3dcb0802	0.09913637
83	0x86026b0f	-2.4528937e-35
84	0xbe28ba69	-0.1647736
85	0xbda693e5	-0.081336774
86	0x3ebfb6d9	0.3744419
87	0x3cc4f5d0	0.024042994
88	0x3e2f844a	0.17140308
89	0xbe612504	-0.21986777
90	0xbd66b530	-0.056325138
91	0x3eac44ae	0.33646148
92	0xbd9b7462	-0.07590558
93	0x3e579cef	0.21055959
94	0x3c6b30d3	0.014354902
95	0x3dc424fb	0.09577366
96	0x3da069f7	0.07832711
97	0xbce169fb	-0.027516356
98	0x3dca1912	0.09868063
99	0x056ef0de	1.12349465e-35
100	0xbd2284d0	-0.03967744
101	0x3e585221	0.2112508
102	0x3dc706c0	0.09718084
103	0x3d9e2b38	0.07723087
104	0x3e24d21b	0.16095774
105	0x3daa98d1	0.08329929
106	0xbda4f96b	-0.08055385
107	0x3e0a77d3	0.13522272
108	0x3e4340fb	0.19067757
109	0xbd8ad591	-0.06779016
110	0xbd75ddab	-0.060025852
111	0xbaffd4d1	-0.001951838
112	0xbd6774e3	-0.056507956
113	0xbbed5aba	-0.0072434815
114	0x3d2cf7cc	0.042228505
115	0x0536685d	8.5767674e-36
116	0x3e91a6dd	0.2844762
117	0x3d89d268	0.06729585
118	0x3e950561	0.29105666
119	0xbe031328	-0.12800276
120	0xbd762a7b	-0.060099106
121	0xbe67d879	-0.22641172
122	0x3d02fd20	0.03197968
123	0x3d8df280	0.06931019
124	0x3dd1742a	0.10227235
125	0x3e341f0b	0.17589967
126	0x3e811f4f	0.252192
127	0x3e7de29e	0.24793479
128	0x3e17388b	0.14767663
129	0xbe4f675f	-0.20254277
130	0x3db8bf84	0.09020904
131	0x06267c73	3.131256e-35
132	0x3e992672	0.29912144
133	0x3eb12cf0	0.34604597
134	0xbe0d8034	-0.13818437
135	0x3e91ce00	0.28477478
136	0x3ccce52a	0.025011618
137	0xbce1c7bb	-0.02756106
138	0xbda1d68a	-0.07902248
139	0xbdc1cb1d	-0.09462569
140	0x3df9dde8	0.122005284
141	0xbbf76cd3	-0.0075508147
142	0x3d8e9de2	0.069637075
143	0xbc7835ee	-0.015149577
144	0x3cbf6faa	0.023368675
145	0x3e495783	0.1966229
146	0x3d5692b1	0.05238599
147	0x05a6842d	1.5659119e-35
148	0x3de3ae4e	0.1111723
149	0xbe3e1142	-0.18561271
150	0xba01aca6	-0.0004946686
151	0x3c8ce3f0	0.017198533
152	0xbcddad0b	-0.027060052
153	0x3d9be162	0.07611348
154	0xbe4ae067	-0.19812165
155	0xbcd4bf93	-0.025970256
156	0x3d6ddb1f	0.0580703
157	0x3e5c2fd1	0.21502616
158	0x3e7ef863	0.2489944
159	0x3ee16459	0.44021872
160	0x3dd0a17a	0.10187049
161	0xbe492690	-0.19643617
162	0xbbfec9de	-0.0077755293
163	0x054f11e6	9.736381e-36
164	0x3d45d38c	0.04829745
165	0x3db0117f	0.08597087
166	0x3dc665eb	0.09687408
167	0x3ea1320f	0.31483504
168	0x3e4f20a6	0.20227298
169	0x3e452ccc	0.1925537
170	0x3e3cae72	0.1842592
171	0xbe24cde7	-0.1609417
172	0x3e2a3702	0.16622546
173	0xbc6ec333	-0.014572906
174	0xbddce536	-0.10785906
175	0xbe4a83c1	-0.19776823
176	0x3db15879	0.08659453
177	0x3e86202b	0.26196417
178	0x3e7ce046	0.24694929
179	0x862d3d63	-3.2582783e-35
180	0xbe48fbe5	-0.1962734
181	0xbaad696e	-0.0013230273
182	0x3e24f4d3	0.16109018
183	0xbe5ec1f0	-0.21753669
184	0x3df46d0f	0.11934864
185	0x3d22d6fe	0.039755814
186	0xbdb07c28	-0.08617431
187	0x3e9f1457	0.31070206
188	0x3d1cfb03	0.03832532
189	0x3e19e63b	0.15029232
190	0xbd6d8f0b	-0.057997745
191	0x3e1e2355	0.15443166
192	0x3e4ec04d	0.20190544
193	0xbe141361	-0.14460517
194	0x3dc93185	0.09823898
195	0x05876112	1.2730997e-35
196	0xbc198cba	-0.009371931
197	0x3bf4d68e	0.007471866
198	0xbdc898ba	-0.09794755
199	0x3d7153bd	0.05891775
200	0x3e9b078f	0.30279204
201	0x3eaa1928	0.33222318
202	0xbd892142	-0.066957965
203	0xbe13fa15	-0.14450867
204	0x3dc2eb86	0.09517579
205	0xbd4cddaf	-0.0500161
206	0xbd752bd7	-0.059856262
207	0xbdfdc509	-0.12391097
208	0x80213886	-3.050848e-39
209	0x80804c93	-1.1782413e-38
210	0x80d9d56c	-2.0004864e-38
211	0x8005ab7b	-5.20693e-40
212	0x8021f15f	-3.117159e-39
213	0x0056ffb1	7.989577e-39
214	0x8043cd23	-6.226567e-39
215	0x0069e4ea	9.724846e-39
216	0x803ee474	-5.775754e-39
217	0x002605ce	3.491831e-39
218	0x001eaa77	2.816216e-39
219	0x00111732	1.569524e-39
220	0x003b2645	5.432023e-39
221	0x8073729c	-1.0602196e-38
222	0x80149135	-1.8888e-39
223	0x003b3951	5.438856e-39
224	0x3e717bbd	0.23582359
225	0xbe14a370	-0.14515471
226	0x3e59b318	0.21259725
227	0x055ea966	1.04695034e-35
228	0xbcb5273a	-0.022113431
229	0x3d830f87	0.06399446
230	0x3e805710	0.25066423
231	0x3e8d43bd	0.27590743
232	0x3e9daa12	0.30793816
233	0x3ec7425a	0.3891781
234	0x3dc49796	0.09599225
235	0x3cdc29ca	0.026875395
236	0x3e465acc	0.19370574
237	0xbd988226	-0.07446699
238	0xbe1f85fa	-0.15578452
239	0xbe1e488a	-0.15457359
240	0x3da80fd5	0.08206145
241	0xbe024405	-0.1272126
242	0x3d9b1604	0.075725585
243	0x05527d09	9.897118e-36
244	0x3d2fd35c	0.042926177
245	0x3e3f4ec8	0.18682396
246	0x3b3885cd	0.0028155923
247	0x3e570c0c	0.2100069
248	0x3e3bb51b	0.18330805
249	0x3e579d42	0.21056083
250	0x3d8735e9	0.066020794
251	0xbe1a7530	-0.15083766
252	0x3e282c95	0.16423257
253	0xbb50d889	-0.0031867346
254	0xbc0d707b	-0.008632774
255	0x3d49ef26	0.049300335

decoder.4.bias f4 [32]
0	0xbded51b0	-0.11587846
1	0x3cde6102	0.027145866
2	0x3dfaeeb0	0.12252557
3	0x3e3eba2d	0.18625708
4	0x3ef2d7bb	0.47430214
5	0xbdadf00f	-0.08493053
6	0xbe1f8a5e	-0.15580127
7	0x3ed2f1ed	0.412002
8	0x3e5dec64	0.21672207
9	0x3e977029	0.2957776
10	0x3deaf1e0	0.11471915
11	0xbe7b85c0	-0.2456274
12	0x3df282e6	0.11841373
13	0x80068dee	-6.01928e-40
14	0xbdcc5623	-0.09977367
15	0x3dd0d189	0.10196216
16	0xbf74e8a8	-0.95667505
17	0xbd536fee	-0.051620416
18	0x3e5a5c4a	0.21324268
19	0x3e6af29e	0.22944114
20	0x3e35303f	0.17694186
21	0x3e39bf7c	0.18139452
22	0x3e4025fb	0.18764488
23	0xb7996fcc	-1.829108e-05
24	0x3eae7b80	0.34078598
25	0x3e8c861a	0.2744606
26	0x3e75267f	0.23940466
27	0x3dc1d61c	0.09464666
28	0xbe45a31f	-0.19300507
29	0xbdcdffa2	-0.10058524
30	0xbce39778	-0.027782187
31	0xbe49a16b	-0.19690482

decoder.6.weight f4 [64, 32]
0	0x35458a77	7.358971e-07
1	0x3746e529	1.1855075e-05
2	0xb5c1697c	-1.441032e-06
3	0x34cd619f	3.8255254e-07
4	0xb457de6c	-2.0104352e-07
5	0xb5a491dc	-1.2261403e-06
6	0xb591bc75	-1.085819e-06
7	0xb5ac912c	-1.2857249e-06
8	0xb56d8b09	-8.8491703e-07
9	0x34c55cf5	3.6761745e-07
10	0x36876dba	4.0360874e-06
11	0x370d5e25	8.426175e-06
12	0x35de25c7	1.6551284e-06
13	0x000627b4	5.65256e-40
14	0x36fe5b07	7.580387e-06
15	0xb57ad504	-9.3442236e-07
16	0xb519df83	-5.7322194e-07
17	0xb5b7b0ab	-1.368598e-06
18	0x362db7cf	2.5886e-06
19	0xb498f9e3	-2.8494023e-07
20	0x36876f54	4.036274e-06
21	0xb4659333	-2.1380838e-07
22	0xb6189efa	-2.2742302e-06
23	0x800558cb	-4.9103e-40
24	0xb51e7996	-5.903652e-07
25	0xb4591707	-2.0218077e-07
26	0xb4910591	-2.7012405e-07
27	0x34822df4	2.4247822e-07
28	0xb47a6a64	-2.3321769e-07
29	0xb50eec7d	-5.324326e-07
30	0x324a81e7	1.1787484e-08
31	0xb583d8b7	-9.823333e-07
32	0x3c70951c	0.014683988
33	0x3e052696	0.13003
34	0x3e789a31	0.2427757
35	0x3c4cb0c3	0.012493315
36	0x3df54f12	0.11977972
37	0x3e11cd7c	0.14238542
38	0xbda9c3ac	-0.082892746
39	0x3e285a30	0.16440654
40	0x3def73d3	0.116920136
41	0x3dcd29cb	0.10017737
42	0xbda7c1ef	-0.08191287
43	0x3d4731ea	0.048631586
44	0x3cb1722e	0.02166089
45	0x001f9bae	2.902748e-39
46	0xbcadfde9	-0.021239238
47	0x3cabddfa	0.02097987
48	0xbdbbb4e6	-0.09165363
49	0xbd9faf3d	-0.07797096
50	0x3d7fed73	0.06248231
51	0xbd599a35	-0.05312558
52	0x3de87350	0.11350119
53	0x3dec5de0	0.11541343
54	0x3d8341fd	0.06409071
55	0x800557d2	-4.90681e-40
56	0x3d2ae0ad	0.041718174
57	0xbb443043	-0.0029935993
58	0x3d465ceb	0.048428457
59	0xbc832037	-0.016006572
60	0x3d2bdc2e	0.041958027
61	0x3d948f47	0.072538905
62	0x3dfe7fe7	0.12426739
63	0x3d807b2b	0.062734924
64	0x831df4ca	-4.6419157e-37
65	0x84864a35	-3.1571397e-36
66	0x838a91f2	-8.144418e-37
67	0x8362b8e1	-6.662766e-37
68	0x820a7b4e	-1.0174025e-37
69	0x846341b4	-2.6713891e-36
70	0x84509146	-2.4516989e-36
71	0x82fa74fe	-3.6801349e-37
72	0x8388a1f4	-8.030544e-37
73	0x8321f9cb	-4.7600396e-37
74	0x8460521f	-2.6368782e-36
75	0x84355f01	-2.1320071e-36
76	0x83461627	-5.82124e-37
77	0x80056e9c	-4.98857e-40
78	0x83d7716e	-1.26626065e-36
79	0x8454f346	-2.5032186e-36
80	0x83dd3ba2	-1.3002904e-36
81	0x83803222	-7.534674e-37
82	0x83868fdf	-7.908843e-37
83	0x84190619	-1.7987863e-36
84	0x8377e1cd	-7.2845983e-37
85	0x835cf9d3	-6.4938973e-37
86	0x849b85e9	-3.6563302e-36
87	0x0006b57b	6.16116e-40
88	0x8338a7d2	-5.426539e-37
89	0x83a0657e	-9.427256e-37
90	0x8307a236	-3.9859143e-37
91	0x84105880	-1.6967756e-36
92	0x83e5f0be	-1.3514682e-36
93	0x83c56390	-1.1601478e-36
94	0x848aeee9	-3.266305e-36
95	0x83ab2471	-1.0058843e-36
96	0xbc49e2dc	-0.012322154
97	0x3e5750fb	0.21026985
98	0xbc341cc6	-0.010993188
99	0x3d987679	0.07444472
100	0xbb598c38	-0.003319515
101	0x3d0a151f	0.03371155
102	0x3e2a91da	0.166572
103	0xbe53acc7	-0.20671378
104	0x3e126c3d	0.14299102
105	0xbd9498a9	-0.0725568
106	0x3d54e7fe	0.051979057
107	0x3d44ff83	0.048095237
108	0x3d6bf1cb	0.05760364
109	0x003d9a41	5.657301e-39
110	0x3e81e228	0.25367856
111	0x3db41297	0.08792608
112	0x3e671c4d	0.2256939
113	0x3dd3e6f6	0.10346787
114	0x3e0b9899	0.1363243
115	0x3e18bca9	0.14915718
116	0xbdb58298	-0.088627994
117	0xbe09fc11	-0.13475062
118	0x3e1b3691	0.15157534
119	0x80055f82	-4.93439e-40
120	0xbdeeecbd	-0.11666248
121	0x3d47b52d	0.048756767
122	0xbd6a31d5	-0.05717643
123	0x3e10d139	0.14142312
124	0x3ca71eaa	0.020400364
125	0xbc879ae2	-0.016553346
126	0x3e7c51f9	0.24640645
127	0x3d46aae4	0.048502818
128	0xba598986	-0.00082983857
129	0x3d994064	0.07482985
130	0xbd4afed8	-0.049559444
131	0x3e0ed6d8	0.13949144
132	0xbd8112c4	-0.063024074
133	0xbd6e618f	-0.058198508
134	0x3d11c71d	0.03559028
135	0x3d02f356	0.031970344
136	0x3e14ff43	0.145505
137	0xbcba371b	-0.022731354
138	0x3da95312	0.082677975
139	0xbda8db63	-0.0824497
140	0x3d686ad2	0.056742497
141	0x000423ba	3.80158e-40
142	0x3d625213	0.055254053
143	0x3d83ed0f	0.064417
144	0xbebb17d5	-0.3654162
145	0x3dd19d89	0.102351256
146	0x3e1ca720	0.15298128
147	0x3d8ce2ee	0.06879221
148	0xbbdc702f	-0.0067272405
149	0xbbb0f71e	-0.0054005524
150	0x3ce690ab	0.028145155
151	0x00059031	5.10904e-40
152	0x3e0b2951	0.1358998
153	0x3d8c0254	0.068363816
154	0x3cfcaa4a	0.030842919
155	0x3d1ee629	0.038793717
156	0xbd536621	-0.05161107
157	0xbd0e96fb	-0.034811955
158	0x3ce024c8	0.027361289
159	0xbd9dbb5b	-0.07701751
160	0x3db958ca	0.09050138
161	0x3d8e4050	0.069458604
162	0x3e2459eb	0.16049926
163	0xbddb73fc	-0.10715482
164	0xbe0d11f0	-0.13776374
165	0x3e28944d	0.16462822
166	0x3d927bc3	0.07152512
167	0x3cd286f2	0.025699113
168	0xbd6db837	-0.05803701
169	0x3d998144	0.074953586
170	0xbd179ead	-0.03701656
171	0x3e2b897b	0.16751663
172	0xbbba9145	-0.005693587
173	0x002fdbf7	4.395177e-39
174	0x3d736685	0.059423942
175	0x3cf79131	0.0302206
176	0x3e2b14f7	0.16707216
177	0xbaf9c481	-0.0019055755
178	0xbddeb4c2	-0.108743206
179	0x3d078e3a	0.033094622
180	0x3de28e8f	0.11062347
181	0x3da1046d	0.07862172
182	0x3d7b8f93	0.06141622
183	0x80057a64	-5.03083e-40
184	0xbe02cb25	-0.12772806
185	0x3c90c42e	0.01767167
186	0xbcae8406	-0.021303188
187	0xbc57f5b5	-0.01318114
188	0x3e0a73a1	0.13520671
189	0x3dfcf3c8	0.12351185
190	0x3dd2e5ae	0.10297714
191	0x3e27adc0	0.16374874
192	0xa417a86f	-3.2885574e-17
193	0xa53580f4	-1.5742938e-16
194	0xa5b73a0c	-3.1784774e-16
195	0xa440f9cd	-4.1844953e-17
196	0xa2af3254	-4.748713e-18
197	0xa4e68795	-9.9976285e-17
198	0xa4a8d0c3	-7.321204e-17
199	0xa461770e	-4.888994e-17
200	0xa3ea7230	-2.5418691e-17
201	0xa405cb74	-2.901211e-17
202	0xa4890911	-5.942964e-17
203	0xa501ee46	-1.1269697e-16
204	0xa4423ccb	-4.2118538e-17
205	0x00056b92	4.97766e-40
206	0xa4f1bb95	-1.04834866e-16
207	0xa49b9921	-6.7479945e-17
208	0xa4853c73	-5.778196e-17
209	0xa46e307c	-5.164909e-17
210	0xa56c6871	-2.0505123e-16
211	0xa500a15a	-1.1156898e-16
212	0xa4e656a8	-9.98934e-17
213	0xa40f8daf	-3.1128193e-17
214	0xa512e3f9	-1.2740722e-16
215	0x8005620c	-4.9435e-40
216	0xa40827d7	-2.9524045e-17
217	0xa50eaba8	-1.2374696e-16
218	0xa3784086	-1.345777e-17
219	0xa4b41bca	-7.810963e-17
220	0xa461ee4d	-4.8990946e-17
221	0xa47e7a31	-5.518097e-17
222	0xa4c4f774	-8.542065e-17
223	0xa471704b	-5.235366e-17
224	0x3db514ff	0.08841895
225	0x3dd497b3	0.10380497
226	0x3e37fda5	0.17967851
227	0xbe123c5b	-0.14280836
228	0xbd588d30	-0.052869022
229	0x3e490c72	0.19633654
230	0xbd6ccbe1	-0.05781162
231	0x3e5ec6e1	0.21755554
232	0xbdd108ae	-0.10206734
233	0x3e661742	0.2246981
234	0xbd64d3c3	-0.055866014
235	0x3e01ac54	0.12663394
236	0xbd1485aa	-0.036260284
237	0x80026b09	-2.22068e-40
238	0xbcc533ec	-0.02407261
239	0x3d687046	0.056747697
240	0xbdd01bbb	-0.10161539
241	0xbde1aaae	-0.11018883
242	0xbdf29700	-0.11845207
243	0x3d3e6d18	0.04649076
244	0x3e33491b	0.17508356
245	0x3e45278d	0.19253369
246	0x3db58cd6	0.08864753
247	0x80057b89	-5.03494e-40
248	0xbd7f2dc7	-0.062299516
249	0x3dce9b86	0.100882575
250	0x3dae0898	0.08497733
251	0x3c962916	0.018330138
252	0x3dc29967	0.095019154
253	0x3df37ef9	0.118894525
254	0x3d4aa180	0.049470425
255	0x3e147214	0.14496642

decoder.6.bias f4 [64]
0	0x35b6125b	1.3565399e-06
1	0x3e48458d	0.19557782
2	0x82cc5bad	-3.0027725e-37
3	0xbe2c2b60	-0.16813421
4	0x3d90ceef	0.070707195
5	0xbdc2346f	-0.09482657
6	0xa40497f4	-2.8751647e-17
7	0x3e037797	0.12838589
8	0x3e52114f	0.20514415
9	0x3dc58f70	0.09646499
10	0x3df961e8	0.12176877
11	0x3c965d79	0.018355118
12	0x3e6132db	0.21992056
13	0x3a822ee8	0.0009932192
14	0x3e028a42	0.12748054
15	0x3e04a509	0.12953581
16	0x3dc72823	0.09724452
17	0x3e090a74	0.13382894
18	0xbe0ca8ad	-0.1373622
19	0x3e0ccbdc	0.13749641
20	0x3d282bd7	0.041057434
21	0xbd8bef6c	-0.068327755
22	0xbddd3bd6	-0.108024284
23	0x3e4d7341	0.20063497
24	0x3e25a0c0	0.16174603
25	0x3d3074bc	0.043080077
26	0x3cb899ed	0.022534335
27	0x3dbca48a	0.09211071
28	0xbac6961e	-0.001515094
29	0x3e466c48	0.19377244
30	0x3da0f690	0.07859528
31	0x3d737855	0.05944093
32	0x2136e589	6.1967786e-19
33	0x3e8e3f1f	0.27782533
34	0xbd279afa	-0.04091928
35	0x3e1bbc37	0.15208517
36	0xbdaaa933	-0.083330534
37	0x3d64107c	0.055679783
38	0x3e38e224	0.18055016
39	0x3e7dee65	0.24797972
40	0x3dc7dd63	0.09759023
41	0x290f71af	3.1850983e-14
42	0x0920599b	1.9301432e-33
43	0x3a8c74cf	0.0010715964
44	0x3e0861de	0.13318583
45	0x3d92efd2	0.07174648
46	0x3df7b7ea	0.12095626
47	0x3dbfa210	0.09357083
48	0xbdfc1634	-0.123089224
49	0x3e49b7ad	0.19698973
50	0x3e4ebf57	0.20190178
51	0x3e357e37	0.17723928
52	0x3e7fe99d	0.2499146
53	0xbd79361f	-0.06084263
54	0xbdf50a63	-0.11964872
55	0xb0be4275	-1.3843208e-09
56	0xb60abeee	-2.0674738e-06
57	0x3d8c408b	0.06848248
58	0x3f14e1be	0.58156955
59	0x3df02caf	0.11727273
60	0x3d0575c4	0.032583013
61	0x3e652688	0.2237798
62	0xbd8c81f5	-0.06860725
63	0xa1e72ce5	-1.5665052e-18
